{"class_name": "Sequential", "keras_version": "2.2.4", "backend": "tensorflow", "config": {"layers": [{"class_name": "Model", "config": {"output_layers": [["conv_7b_ac", 0, 0]], "input_layers": [["input_1", 0, 0]], "layers": [{"class_name": "InputLayer", "inbound_nodes": [], "name": "input_1", "config": {"sparse": false, "dtype": "float32", "name": "input_1", "batch_input_shape": [null, 299, 299, 3]}}, {"class_name": "Conv2D", "inbound_nodes": [[["input_1", 0, 0, {}]]], "name": "conv2d_1", "config": {"bias_initializer": {"class_name": "Zeros", "config": {}}, "bias_regularizer": null, "activity_regularizer": null, "use_bias": false, "kernel_regularizer": null, "kernel_constraint": null, "kernel_size": [3, 3], "data_format": "channels_last", "filters": 32, "strides": [2, 2], "name": "conv2d_1", "trainable": false, "padding": "valid", "activation": "linear", "bias_constraint": null, "kernel_initializer": {"class_name": "VarianceScaling", "config": {"mode": "fan_avg", "distribution": "uniform", "seed": null, "scale": 1.0}}, "dilation_rate": [1, 1]}}, {"class_name": "BatchNormalization", "inbound_nodes": [[["conv2d_1", 0, 0, {}]]], "name": "batch_normalization_1", "config": {"gamma_initializer": {"class_name": "Ones", "config": {}}, "epsilon": 0.001, "scale": false, "beta_constraint": null, "name": "batch_normalization_1", "moving_mean_initializer": {"class_name": "Zeros", "config": {}}, "beta_regularizer": null, "center": true, "beta_initializer": {"class_name": "Zeros", "config": {}}, "moving_variance_initializer": {"class_name": "Ones", "config": {}}, "momentum": 0.99, "trainable": false, "gamma_constraint": null, "axis": 3, "gamma_regularizer": null}}, {"class_name": "Activation", "inbound_nodes": [[["batch_normalization_1", 0, 0, {}]]], "name": "activation_1", "config": {"activation": "relu", "name": "activation_1", "trainable": false}}, {"class_name": "Conv2D", "inbound_nodes": [[["activation_1", 0, 0, {}]]], "name": "conv2d_2", "config": {"bias_initializer": {"class_name": "Zeros", "config": {}}, "bias_regularizer": null, "activity_regularizer": null, "use_bias": false, "kernel_regularizer": null, "kernel_constraint": null, "kernel_size": [3, 3], "data_format": "channels_last", "filters": 32, "strides": [1, 1], "name": "conv2d_2", "trainable": false, "padding": "valid", "activation": "linear", "bias_constraint": null, "kernel_initializer": {"class_name": "VarianceScaling", "config": {"mode": "fan_avg", "distribution": "uniform", "seed": null, "scale": 1.0}}, "dilation_rate": [1, 1]}}, {"class_name": "BatchNormalization", "inbound_nodes": [[["conv2d_2", 0, 0, {}]]], "name": "batch_normalization_2", "config": {"gamma_initializer": {"class_name": "Ones", "config": {}}, "epsilon": 0.001, "scale": false, "beta_constraint": null, "name": "batch_normalization_2", "moving_mean_initializer": {"class_name": "Zeros", "config": {}}, "beta_regularizer": null, "center": true, "beta_initializer": {"class_name": "Zeros", "config": {}}, "moving_variance_initializer": {"class_name": "Ones", "config": {}}, "momentum": 0.99, "trainable": false, "gamma_constraint": null, "axis": 3, "gamma_regularizer": null}}, {"class_name": "Activation", "inbound_nodes": [[["batch_normalization_2", 0, 0, {}]]], "name": "activation_2", "config": {"activation": "relu", "name": "activation_2", "trainable": false}}, {"class_name": "Conv2D", "inbound_nodes": [[["activation_2", 0, 0, {}]]], "name": "conv2d_3", "config": {"bias_initializer": {"class_name": "Zeros", "config": {}}, "bias_regularizer": null, "activity_regularizer": null, "use_bias": false, "kernel_regularizer": null, "kernel_constraint": null, "kernel_size": [3, 3], "data_format": "channels_last", "filters": 64, "strides": [1, 1], "name": "conv2d_3", "trainable": false, "padding": "same", "activation": "linear", "bias_constraint": null, "kernel_initializer": {"class_name": "VarianceScaling", "config": {"mode": "fan_avg", "distribution": "uniform", "seed": null, "scale": 1.0}}, "dilation_rate": [1, 1]}}, {"class_name": "BatchNormalization", "inbound_nodes": [[["conv2d_3", 0, 0, {}]]], "name": "batch_normalization_3", "config": {"gamma_initializer": {"class_name": "Ones", "config": {}}, "epsilon": 0.001, "scale": false, "beta_constraint": null, "name": "batch_normalization_3", "moving_mean_initializer": {"class_name": "Zeros", "config": {}}, "beta_regularizer": null, "center": true, "beta_initializer": {"class_name": "Zeros", "config": {}}, "moving_variance_initializer": {"class_name": "Ones", "config": {}}, "momentum": 0.99, "trainable": false, "gamma_constraint": null, "axis": 3, "gamma_regularizer": null}}, {"class_name": "Activation", "inbound_nodes": [[["batch_normalization_3", 0, 0, {}]]], "name": "activation_3", "config": {"activation": "relu", "name": "activation_3", "trainable": false}}, {"class_name": "MaxPooling2D", "inbound_nodes": [[["activation_3", 0, 0, {}]]], "name": "max_pooling2d_1", "config": {"strides": [2, 2], "data_format": "channels_last", "trainable": false, "padding": "valid", "pool_size": [3, 3], "name": "max_pooling2d_1"}}, {"class_name": "Conv2D", "inbound_nodes": [[["max_pooling2d_1", 0, 0, {}]]], "name": "conv2d_4", "config": {"bias_initializer": {"class_name": "Zeros", "config": {}}, "bias_regularizer": null, "activity_regularizer": null, "use_bias": false, "kernel_regularizer": null, "kernel_constraint": null, "kernel_size": [1, 1], "data_format": "channels_last", "filters": 80, "strides": [1, 1], "name": "conv2d_4", "trainable": false, "padding": "valid", "activation": "linear", "bias_constraint": null, "kernel_initializer": {"class_name": "VarianceScaling", "config": {"mode": "fan_avg", "distribution": "uniform", "seed": null, "scale": 1.0}}, "dilation_rate": [1, 1]}}, {"class_name": "BatchNormalization", "inbound_nodes": [[["conv2d_4", 0, 0, {}]]], "name": "batch_normalization_4", "config": {"gamma_initializer": {"class_name": "Ones", "config": {}}, "epsilon": 0.001, "scale": false, "beta_constraint": null, "name": "batch_normalization_4", "moving_mean_initializer": {"class_name": "Zeros", "config": {}}, "beta_regularizer": null, "center": true, "beta_initializer": {"class_name": "Zeros", "config": {}}, "moving_variance_initializer": {"class_name": "Ones", "config": {}}, "momentum": 0.99, "trainable": false, "gamma_constraint": null, "axis": 3, "gamma_regularizer": null}}, {"class_name": "Activation", "inbound_nodes": [[["batch_normalization_4", 0, 0, {}]]], "name": "activation_4", "config": {"activation": "relu", "name": "activation_4", "trainable": false}}, {"class_name": "Conv2D", "inbound_nodes": [[["activation_4", 0, 0, {}]]], "name": "conv2d_5", "config": {"bias_initializer": {"class_name": "Zeros", "config": {}}, "bias_regularizer": null, "activity_regularizer": null, "use_bias": false, "kernel_regularizer": null, "kernel_constraint": null, "kernel_size": [3, 3], "data_format": "channels_last", "filters": 192, "strides": [1, 1], "name": "conv2d_5", "trainable": false, "padding": "valid", "activation": "linear", "bias_constraint": null, "kernel_initializer": {"class_name": "VarianceScaling", "config": {"mode": "fan_avg", "distribution": "uniform", "seed": null, "scale": 1.0}}, "dilation_rate": [1, 1]}}, {"class_name": "BatchNormalization", "inbound_nodes": [[["conv2d_5", 0, 0, {}]]], "name": "batch_normalization_5", "config": {"gamma_initializer": {"class_name": "Ones", "config": {}}, "epsilon": 0.001, "scale": false, "beta_constraint": null, "name": "batch_normalization_5", "moving_mean_initializer": {"class_name": "Zeros", "config": {}}, "beta_regularizer": null, "center": true, "beta_initializer": {"class_name": "Zeros", "config": {}}, "moving_variance_initializer": {"class_name": "Ones", "config": {}}, "momentum": 0.99, "trainable": false, "gamma_constraint": null, "axis": 3, "gamma_regularizer": null}}, {"class_name": "Activation", "inbound_nodes": [[["batch_normalization_5", 0, 0, {}]]], "name": "activation_5", "config": {"activation": "relu", "name": "activation_5", "trainable": false}}, {"class_name": "MaxPooling2D", "inbound_nodes": [[["activation_5", 0, 0, {}]]], "name": "max_pooling2d_2", "config": {"strides": [2, 2], "data_format": "channels_last", "trainable": false, "padding": "valid", "pool_size": [3, 3], "name": "max_pooling2d_2"}}, {"class_name": "Conv2D", "inbound_nodes": [[["max_pooling2d_2", 0, 0, {}]]], "name": "conv2d_9", "config": {"bias_initializer": {"class_name": "Zeros", "config": {}}, "bias_regularizer": null, "activity_regularizer": null, "use_bias": false, "kernel_regularizer": null, "kernel_constraint": null, "kernel_size": [1, 1], "data_format": "channels_last", "filters": 64, "strides": [1, 1], "name": "conv2d_9", "trainable": false, "padding": "same", "activation": "linear", "bias_constraint": null, "kernel_initializer": {"class_name": "VarianceScaling", "config": {"mode": "fan_avg", "distribution": "uniform", "seed": null, "scale": 1.0}}, "dilation_rate": [1, 1]}}, {"class_name": "BatchNormalization", "inbound_nodes": [[["conv2d_9", 0, 0, {}]]], "name": "batch_normalization_9", "config": {"gamma_initializer": {"class_name": "Ones", "config": {}}, "epsilon": 0.001, "scale": false, "beta_constraint": null, "name": "batch_normalization_9", "moving_mean_initializer": {"class_name": "Zeros", "config": {}}, "beta_regularizer": null, "center": true, "beta_initializer": {"class_name": "Zeros", "config": {}}, "moving_variance_initializer": {"class_name": "Ones", "config": {}}, "momentum": 0.99, "trainable": false, "gamma_constraint": null, "axis": 3, "gamma_regularizer": null}}, {"class_name": "Activation", "inbound_nodes": [[["batch_normalization_9", 0, 0, {}]]], "name": "activation_9", "config": {"activation": "relu", "name": "activation_9", "trainable": false}}, {"class_name": "Conv2D", "inbound_nodes": [[["max_pooling2d_2", 0, 0, {}]]], "name": "conv2d_7", "config": {"bias_initializer": {"class_name": "Zeros", "config": {}}, "bias_regularizer": null, "activity_regularizer": null, "use_bias": false, "kernel_regularizer": null, "kernel_constraint": null, "kernel_size": [1, 1], "data_format": "channels_last", "filters": 48, "strides": [1, 1], "name": "conv2d_7", "trainable": false, "padding": "same", "activation": "linear", "bias_constraint": null, "kernel_initializer": {"class_name": "VarianceScaling", "config": {"mode": "fan_avg", "distribution": "uniform", "seed": null, "scale": 1.0}}, "dilation_rate": [1, 1]}}, {"class_name": "Conv2D", "inbound_nodes": [[["activation_9", 0, 0, {}]]], "name": "conv2d_10", "config": {"bias_initializer": {"class_name": "Zeros", "config": {}}, "bias_regularizer": null, "activity_regularizer": null, "use_bias": false, "kernel_regularizer": null, "kernel_constraint": null, "kernel_size": [3, 3], "data_format": "channels_last", "filters": 96, "strides": [1, 1], "name": "conv2d_10", "trainable": false, "padding": "same", "activation": "linear", "bias_constraint": null, "kernel_initializer": {"class_name": "VarianceScaling", "config": {"mode": "fan_avg", "distribution": "uniform", "seed": null, "scale": 1.0}}, "dilation_rate": [1, 1]}}, {"class_name": "BatchNormalization", "inbound_nodes": [[["conv2d_7", 0, 0, {}]]], "name": "batch_normalization_7", "config": {"gamma_initializer": {"class_name": "Ones", "config": {}}, "epsilon": 0.001, "scale": false, "beta_constraint": null, "name": "batch_normalization_7", "moving_mean_initializer": {"class_name": "Zeros", "config": {}}, "beta_regularizer": null, "center": true, "beta_initializer": {"class_name": "Zeros", "config": {}}, "moving_variance_initializer": {"class_name": "Ones", "config": {}}, "momentum": 0.99, "trainable": false, "gamma_constraint": null, "axis": 3, "gamma_regularizer": null}}, {"class_name": "BatchNormalization", "inbound_nodes": [[["conv2d_10", 0, 0, {}]]], "name": "batch_normalization_10", "config": {"gamma_initializer": {"class_name": "Ones", "config": {}}, "epsilon": 0.001, "scale": false, "beta_constraint": null, "name": "batch_normalization_10", "moving_mean_initializer": {"class_name": "Zeros", "config": {}}, "beta_regularizer": null, "center": true, "beta_initializer": {"class_name": "Zeros", "config": {}}, "moving_variance_initializer": {"class_name": "Ones", "config": {}}, "momentum": 0.99, "trainable": false, "gamma_constraint": null, "axis": 3, "gamma_regularizer": null}}, {"class_name": "Activation", "inbound_nodes": [[["batch_normalization_7", 0, 0, {}]]], "name": "activation_7", "config": {"activation": "relu", "name": "activation_7", "trainable": false}}, {"class_name": "Activation", "inbound_nodes": [[["batch_normalization_10", 0, 0, {}]]], "name": "activation_10", "config": {"activation": "relu", "name": "activation_10", "trainable": false}}, {"class_name": "AveragePooling2D", "inbound_nodes": [[["max_pooling2d_2", 0, 0, {}]]], "name": "average_pooling2d_1", "config": {"strides": [1, 1], "data_format": "channels_last", "trainable": false, "padding": "same", "pool_size": [3, 3], "name": "average_pooling2d_1"}}, {"class_name": "Conv2D", "inbound_nodes": [[["max_pooling2d_2", 0, 0, {}]]], "name": "conv2d_6", "config": {"bias_initializer": {"class_name": "Zeros", "config": {}}, "bias_regularizer": null, "activity_regularizer": null, "use_bias": false, "kernel_regularizer": null, "kernel_constraint": null, "kernel_size": [1, 1], "data_format": "channels_last", "filters": 96, "strides": [1, 1], "name": "conv2d_6", "trainable": false, "padding": "same", "activation": "linear", "bias_constraint": null, "kernel_initializer": {"class_name": "VarianceScaling", "config": {"mode": "fan_avg", "distribution": "uniform", "seed": null, "scale": 1.0}}, "dilation_rate": [1, 1]}}, {"class_name": "Conv2D", "inbound_nodes": [[["activation_7", 0, 0, {}]]], "name": "conv2d_8", "config": {"bias_initializer": {"class_name": "Zeros", "config": {}}, "bias_regularizer": null, "activity_regularizer": null, "use_bias": false, "kernel_regularizer": null, "kernel_constraint": null, "kernel_size": [5, 5], "data_format": "channels_last", "filters": 64, "strides": [1, 1], "name": "conv2d_8", "trainable": false, "padding": "same", "activation": "linear", "bias_constraint": null, "kernel_initializer": {"class_name": "VarianceScaling", "config": {"mode": "fan_avg", "distribution": "uniform", "seed": null, "scale": 1.0}}, "dilation_rate": [1, 1]}}, {"class_name": "Conv2D", "inbound_nodes": [[["activation_10", 0, 0, {}]]], "name": "conv2d_11", "config": {"bias_initializer": {"class_name": "Zeros", "config": {}}, "bias_regularizer": null, "activity_regularizer": null, "use_bias": false, "kernel_regularizer": null, "kernel_constraint": null, "kernel_size": [3, 3], "data_format": "channels_last", "filters": 96, "strides": [1, 1], "name": "conv2d_11", "trainable": false, "padding": "same", "activation": "linear", "bias_constraint": null, "kernel_initializer": {"class_name": "VarianceScaling", "config": {"mode": "fan_avg", "distribution": "uniform", "seed": null, "scale": 1.0}}, "dilation_rate": [1, 1]}}, {"class_name": "Conv2D", "inbound_nodes": [[["average_pooling2d_1", 0, 0, {}]]], "name": "conv2d_12", "config": {"bias_initializer": {"class_name": "Zeros", "config": {}}, "bias_regularizer": null, "activity_regularizer": null, "use_bias": false, "kernel_regularizer": null, "kernel_constraint": null, "kernel_size": [1, 1], "data_format": "channels_last", "filters": 64, "strides": [1, 1], "name": "conv2d_12", "trainable": false, "padding": "same", "activation": "linear", "bias_constraint": null, "kernel_initializer": {"class_name": "VarianceScaling", "config": {"mode": "fan_avg", "distribution": "uniform", "seed": null, "scale": 1.0}}, "dilation_rate": [1, 1]}}, {"class_name": "BatchNormalization", "inbound_nodes": [[["conv2d_6", 0, 0, {}]]], "name": "batch_normalization_6", "config": {"gamma_initializer": {"class_name": "Ones", "config": {}}, "epsilon": 0.001, "scale": false, "beta_constraint": null, "name": "batch_normalization_6", "moving_mean_initializer": {"class_name": "Zeros", "config": {}}, "beta_regularizer": null, "center": true, "beta_initializer": {"class_name": "Zeros", "config": {}}, "moving_variance_initializer": {"class_name": "Ones", "config": {}}, "momentum": 0.99, "trainable": false, "gamma_constraint": null, "axis": 3, "gamma_regularizer": null}}, {"class_name": "BatchNormalization", "inbound_nodes": [[["conv2d_8", 0, 0, {}]]], "name": "batch_normalization_8", "config": {"gamma_initializer": {"class_name": "Ones", "config": {}}, "epsilon": 0.001, "scale": false, "beta_constraint": null, "name": "batch_normalization_8", "moving_mean_initializer": {"class_name": "Zeros", "config": {}}, "beta_regularizer": null, "center": true, "beta_initializer": {"class_name": "Zeros", "config": {}}, "moving_variance_initializer": {"class_name": "Ones", "config": {}}, "momentum": 0.99, "trainable": false, "gamma_constraint": null, "axis": 3, "gamma_regularizer": null}}, {"class_name": "BatchNormalization", "inbound_nodes": [[["conv2d_11", 0, 0, {}]]], "name": "batch_normalization_11", "config": {"gamma_initializer": {"class_name": "Ones", "config": {}}, "epsilon": 0.001, "scale": false, "beta_constraint": null, "name": "batch_normalization_11", "moving_mean_initializer": {"class_name": "Zeros", "config": {}}, "beta_regularizer": null, "center": true, "beta_initializer": {"class_name": "Zeros", "config": {}}, "moving_variance_initializer": {"class_name": "Ones", "config": {}}, "momentum": 0.99, "trainable": false, "gamma_constraint": null, "axis": 3, "gamma_regularizer": null}}, {"class_name": "BatchNormalization", "inbound_nodes": [[["conv2d_12", 0, 0, {}]]], "name": "batch_normalization_12", "config": {"gamma_initializer": {"class_name": "Ones", "config": {}}, "epsilon": 0.001, "scale": false, "beta_constraint": null, "name": "batch_normalization_12", "moving_mean_initializer": {"class_name": "Zeros", "config": {}}, "beta_regularizer": null, "center": true, "beta_initializer": {"class_name": "Zeros", "config": {}}, "moving_variance_initializer": {"class_name": "Ones", "config": {}}, "momentum": 0.99, "trainable": false, "gamma_constraint": null, "axis": 3, "gamma_regularizer": null}}, {"class_name": "Activation", "inbound_nodes": [[["batch_normalization_6", 0, 0, {}]]], "name": "activation_6", "config": {"activation": "relu", "name": "activation_6", "trainable": false}}, {"class_name": "Activation", "inbound_nodes": [[["batch_normalization_8", 0, 0, {}]]], "name": "activation_8", "config": {"activation": "relu", "name": "activation_8", "trainable": false}}, {"class_name": "Activation", "inbound_nodes": [[["batch_normalization_11", 0, 0, {}]]], "name": "activation_11", "config": {"activation": "relu", "name": "activation_11", "trainable": false}}, {"class_name": "Activation", "inbound_nodes": [[["batch_normalization_12", 0, 0, {}]]], "name": "activation_12", "config": {"activation": "relu", "name": "activation_12", "trainable": false}}, {"class_name": "Concatenate", "inbound_nodes": [[["activation_6", 0, 0, {}], ["activation_8", 0, 0, {}], ["activation_11", 0, 0, {}], ["activation_12", 0, 0, {}]]], "name": "mixed_5b", "config": {"axis": 3, "name": "mixed_5b", "trainable": false}}, {"class_name": "Conv2D", "inbound_nodes": [[["mixed_5b", 0, 0, {}]]], "name": "conv2d_16", "config": {"bias_initializer": {"class_name": "Zeros", "config": {}}, "bias_regularizer": null, "activity_regularizer": null, "use_bias": false, "kernel_regularizer": null, "kernel_constraint": null, "kernel_size": [1, 1], "data_format": "channels_last", "filters": 32, "strides": [1, 1], "name": "conv2d_16", "trainable": false, "padding": "same", "activation": "linear", "bias_constraint": null, "kernel_initializer": {"class_name": "VarianceScaling", "config": {"mode": "fan_avg", "distribution": "uniform", "seed": null, "scale": 1.0}}, "dilation_rate": [1, 1]}}, {"class_name": "BatchNormalization", "inbound_nodes": [[["conv2d_16", 0, 0, {}]]], "name": "batch_normalization_16", "config": {"gamma_initializer": {"class_name": "Ones", "config": {}}, "epsilon": 0.001, "scale": false, "beta_constraint": null, "name": "batch_normalization_16", "moving_mean_initializer": {"class_name": "Zeros", "config": {}}, "beta_regularizer": null, "center": true, "beta_initializer": {"class_name": "Zeros", "config": {}}, "moving_variance_initializer": {"class_name": "Ones", "config": {}}, "momentum": 0.99, "trainable": false, "gamma_constraint": null, "axis": 3, "gamma_regularizer": null}}, {"class_name": "Activation", "inbound_nodes": [[["batch_normalization_16", 0, 0, {}]]], "name": "activation_16", "config": {"activation": "relu", "name": "activation_16", "trainable": false}}, {"class_name": "Conv2D", "inbound_nodes": [[["mixed_5b", 0, 0, {}]]], "name": "conv2d_14", "config": {"bias_initializer": {"class_name": "Zeros", "config": {}}, "bias_regularizer": null, "activity_regularizer": null, "use_bias": false, "kernel_regularizer": null, "kernel_constraint": null, "kernel_size": [1, 1], "data_format": "channels_last", "filters": 32, "strides": [1, 1], "name": "conv2d_14", "trainable": false, "padding": "same", "activation": "linear", "bias_constraint": null, "kernel_initializer": {"class_name": "VarianceScaling", "config": {"mode": "fan_avg", "distribution": "uniform", "seed": null, "scale": 1.0}}, "dilation_rate": [1, 1]}}, {"class_name": "Conv2D", "inbound_nodes": [[["activation_16", 0, 0, {}]]], "name": "conv2d_17", "config": {"bias_initializer": {"class_name": "Zeros", "config": {}}, "bias_regularizer": null, "activity_regularizer": null, "use_bias": false, "kernel_regularizer": null, "kernel_constraint": null, "kernel_size": [3, 3], "data_format": "channels_last", "filters": 48, "strides": [1, 1], "name": "conv2d_17", "trainable": false, "padding": "same", "activation": "linear", "bias_constraint": null, "kernel_initializer": {"class_name": "VarianceScaling", "config": {"mode": "fan_avg", "distribution": "uniform", "seed": null, "scale": 1.0}}, "dilation_rate": [1, 1]}}, {"class_name": "BatchNormalization", "inbound_nodes": [[["conv2d_14", 0, 0, {}]]], "name": "batch_normalization_14", "config": {"gamma_initializer": {"class_name": "Ones", "config": {}}, "epsilon": 0.001, "scale": false, "beta_constraint": null, "name": "batch_normalization_14", "moving_mean_initializer": {"class_name": "Zeros", "config": {}}, "beta_regularizer": null, "center": true, "beta_initializer": {"class_name": "Zeros", "config": {}}, "moving_variance_initializer": {"class_name": "Ones", "config": {}}, "momentum": 0.99, "trainable": false, "gamma_constraint": null, "axis": 3, "gamma_regularizer": null}}, {"class_name": "BatchNormalization", "inbound_nodes": [[["conv2d_17", 0, 0, {}]]], "name": "batch_normalization_17", "config": {"gamma_initializer": {"class_name": "Ones", "config": {}}, "epsilon": 0.001, "scale": false, "beta_constraint": null, "name": "batch_normalization_17", "moving_mean_initializer": {"class_name": "Zeros", "config": {}}, "beta_regularizer": null, "center": true, "beta_initializer": {"class_name": "Zeros", "config": {}}, "moving_variance_initializer": {"class_name": "Ones", "config": {}}, "momentum": 0.99, "trainable": false, "gamma_constraint": null, "axis": 3, "gamma_regularizer": null}}, {"class_name": "Activation", "inbound_nodes": [[["batch_normalization_14", 0, 0, {}]]], "name": "activation_14", "config": {"activation": "relu", "name": "activation_14", "trainable": false}}, {"class_name": "Activation", "inbound_nodes": [[["batch_normalization_17", 0, 0, {}]]], "name": "activation_17", "config": {"activation": "relu", "name": "activation_17", "trainable": false}}, {"class_name": "Conv2D", "inbound_nodes": [[["mixed_5b", 0, 0, {}]]], "name": "conv2d_13", "config": {"bias_initializer": {"class_name": "Zeros", "config": {}}, "bias_regularizer": null, "activity_regularizer": null, "use_bias": false, "kernel_regularizer": null, "kernel_constraint": null, "kernel_size": [1, 1], "data_format": "channels_last", "filters": 32, "strides": [1, 1], "name": "conv2d_13", "trainable": false, "padding": "same", "activation": "linear", "bias_constraint": null, "kernel_initializer": {"class_name": "VarianceScaling", "config": {"mode": "fan_avg", "distribution": "uniform", "seed": null, "scale": 1.0}}, "dilation_rate": [1, 1]}}, {"class_name": "Conv2D", "inbound_nodes": [[["activation_14", 0, 0, {}]]], "name": "conv2d_15", "config": {"bias_initializer": {"class_name": "Zeros", "config": {}}, "bias_regularizer": null, "activity_regularizer": null, "use_bias": false, "kernel_regularizer": null, "kernel_constraint": null, "kernel_size": [3, 3], "data_format": "channels_last", "filters": 32, "strides": [1, 1], "name": "conv2d_15", "trainable": false, "padding": "same", "activation": "linear", "bias_constraint": null, "kernel_initializer": {"class_name": "VarianceScaling", "config": {"mode": "fan_avg", "distribution": "uniform", "seed": null, "scale": 1.0}}, "dilation_rate": [1, 1]}}, {"class_name": "Conv2D", "inbound_nodes": [[["activation_17", 0, 0, {}]]], "name": "conv2d_18", "config": {"bias_initializer": {"class_name": "Zeros", "config": {}}, "bias_regularizer": null, "activity_regularizer": null, "use_bias": false, "kernel_regularizer": null, "kernel_constraint": null, "kernel_size": [3, 3], "data_format": "channels_last", "filters": 64, "strides": [1, 1], "name": "conv2d_18", "trainable": false, "padding": "same", "activation": "linear", "bias_constraint": null, "kernel_initializer": {"class_name": "VarianceScaling", "config": {"mode": "fan_avg", "distribution": "uniform", "seed": null, "scale": 1.0}}, "dilation_rate": [1, 1]}}, {"class_name": "BatchNormalization", "inbound_nodes": [[["conv2d_13", 0, 0, {}]]], "name": "batch_normalization_13", "config": {"gamma_initializer": {"class_name": "Ones", "config": {}}, "epsilon": 0.001, "scale": false, "beta_constraint": null, "name": "batch_normalization_13", "moving_mean_initializer": {"class_name": "Zeros", "config": {}}, "beta_regularizer": null, "center": true, "beta_initializer": {"class_name": "Zeros", "config": {}}, "moving_variance_initializer": {"class_name": "Ones", "config": {}}, "momentum": 0.99, "trainable": false, "gamma_constraint": null, "axis": 3, "gamma_regularizer": null}}, {"class_name": "BatchNormalization", "inbound_nodes": [[["conv2d_15", 0, 0, {}]]], "name": "batch_normalization_15", "config": {"gamma_initializer": {"class_name": "Ones", "config": {}}, "epsilon": 0.001, "scale": false, "beta_constraint": null, "name": "batch_normalization_15", "moving_mean_initializer": {"class_name": "Zeros", "config": {}}, "beta_regularizer": null, "center": true, "beta_initializer": {"class_name": "Zeros", "config": {}}, "moving_variance_initializer": {"class_name": "Ones", "config": {}}, "momentum": 0.99, "trainable": false, "gamma_constraint": null, "axis": 3, "gamma_regularizer": null}}, {"class_name": "BatchNormalization", "inbound_nodes": [[["conv2d_18", 0, 0, {}]]], "name": "batch_normalization_18", "config": {"gamma_initializer": {"class_name": "Ones", "config": {}}, "epsilon": 0.001, "scale": false, "beta_constraint": null, "name": "batch_normalization_18", "moving_mean_initializer": {"class_name": "Zeros", "config": {}}, "beta_regularizer": null, "center": true, "beta_initializer": {"class_name": "Zeros", "config": {}}, "moving_variance_initializer": {"class_name": "Ones", "config": {}}, "momentum": 0.99, "trainable": false, "gamma_constraint": null, "axis": 3, "gamma_regularizer": null}}, {"class_name": "Activation", "inbound_nodes": [[["batch_normalization_13", 0, 0, {}]]], "name": "activation_13", "config": {"activation": "relu", "name": "activation_13", "trainable": false}}, {"class_name": "Activation", "inbound_nodes": [[["batch_normalization_15", 0, 0, {}]]], "name": "activation_15", "config": {"activation": "relu", "name": "activation_15", "trainable": false}}, {"class_name": "Activation", "inbound_nodes": [[["batch_normalization_18", 0, 0, {}]]], "name": "activation_18", "config": {"activation": "relu", "name": "activation_18", "trainable": false}}, {"class_name": "Concatenate", "inbound_nodes": [[["activation_13", 0, 0, {}], ["activation_15", 0, 0, {}], ["activation_18", 0, 0, {}]]], "name": "block35_1_mixed", "config": {"axis": 3, "name": "block35_1_mixed", "trainable": false}}, {"class_name": "Conv2D", "inbound_nodes": [[["block35_1_mixed", 0, 0, {}]]], "name": "block35_1_conv", "config": {"bias_initializer": {"class_name": "Zeros", "config": {}}, "bias_regularizer": null, "activity_regularizer": null, "use_bias": true, "kernel_regularizer": null, "kernel_constraint": null, "kernel_size": [1, 1], "data_format": "channels_last", "filters": 320, "strides": [1, 1], "name": "block35_1_conv", "trainable": false, "padding": "same", "activation": "linear", "bias_constraint": null, "kernel_initializer": {"class_name": "VarianceScaling", "config": {"mode": "fan_avg", "distribution": "uniform", "seed": null, "scale": 1.0}}, "dilation_rate": [1, 1]}}, {"class_name": "Lambda", "inbound_nodes": [[["mixed_5b", 0, 0, {}], ["block35_1_conv", 0, 0, {}]]], "name": "block35_1", "config": {"function": ["4wIAAAAAAAAAAgAAAAMAAABTAAAAcxQAAAB8AABkAQAZfAAAZAIAGXwBABQXUykDTukAAAAA6QEA\nAACpACkC2gZpbnB1dHPaBXNjYWxlcgMAAAByAwAAAPpQL3Vzci9sb2NhbC9saWIvcHl0aG9uMy41\nL2Rpc3QtcGFja2FnZXMva2VyYXNfYXBwbGljYXRpb25zL2luY2VwdGlvbl9yZXNuZXRfdjIucHna\nCDxsYW1iZGE+qAAAAPMAAAAA\n", null, null], "name": "block35_1", "output_shape_type": "raw", "trainable": false, "function_type": "lambda", "output_shape": [35, 35, 320], "arguments": {"scale": 0.17}}}, {"class_name": "Activation", "inbound_nodes": [[["block35_1", 0, 0, {}]]], "name": "block35_1_ac", "config": {"activation": "relu", "name": "block35_1_ac", "trainable": false}}, {"class_name": "Conv2D", "inbound_nodes": [[["block35_1_ac", 0, 0, {}]]], "name": "conv2d_22", "config": {"bias_initializer": {"class_name": "Zeros", "config": {}}, "bias_regularizer": null, "activity_regularizer": null, "use_bias": false, "kernel_regularizer": null, "kernel_constraint": null, "kernel_size": [1, 1], "data_format": "channels_last", "filters": 32, "strides": [1, 1], "name": "conv2d_22", "trainable": false, "padding": "same", "activation": "linear", "bias_constraint": null, "kernel_initializer": {"class_name": "VarianceScaling", "config": {"mode": "fan_avg", "distribution": "uniform", "seed": null, "scale": 1.0}}, "dilation_rate": [1, 1]}}, {"class_name": "BatchNormalization", "inbound_nodes": [[["conv2d_22", 0, 0, {}]]], "name": "batch_normalization_22", "config": {"gamma_initializer": {"class_name": "Ones", "config": {}}, "epsilon": 0.001, "scale": false, "beta_constraint": null, "name": "batch_normalization_22", "moving_mean_initializer": {"class_name": "Zeros", "config": {}}, "beta_regularizer": null, "center": true, "beta_initializer": {"class_name": "Zeros", "config": {}}, "moving_variance_initializer": {"class_name": "Ones", "config": {}}, "momentum": 0.99, "trainable": false, "gamma_constraint": null, "axis": 3, "gamma_regularizer": null}}, {"class_name": "Activation", "inbound_nodes": [[["batch_normalization_22", 0, 0, {}]]], "name": "activation_22", "config": {"activation": "relu", "name": "activation_22", "trainable": false}}, {"class_name": "Conv2D", "inbound_nodes": [[["block35_1_ac", 0, 0, {}]]], "name": "conv2d_20", "config": {"bias_initializer": {"class_name": "Zeros", "config": {}}, "bias_regularizer": null, "activity_regularizer": null, "use_bias": false, "kernel_regularizer": null, "kernel_constraint": null, "kernel_size": [1, 1], "data_format": "channels_last", "filters": 32, "strides": [1, 1], "name": "conv2d_20", "trainable": false, "padding": "same", "activation": "linear", "bias_constraint": null, "kernel_initializer": {"class_name": "VarianceScaling", "config": {"mode": "fan_avg", "distribution": "uniform", "seed": null, "scale": 1.0}}, "dilation_rate": [1, 1]}}, {"class_name": "Conv2D", "inbound_nodes": [[["activation_22", 0, 0, {}]]], "name": "conv2d_23", "config": {"bias_initializer": {"class_name": "Zeros", "config": {}}, "bias_regularizer": null, "activity_regularizer": null, "use_bias": false, "kernel_regularizer": null, "kernel_constraint": null, "kernel_size": [3, 3], "data_format": "channels_last", "filters": 48, "strides": [1, 1], "name": "conv2d_23", "trainable": false, "padding": "same", "activation": "linear", "bias_constraint": null, "kernel_initializer": {"class_name": "VarianceScaling", "config": {"mode": "fan_avg", "distribution": "uniform", "seed": null, "scale": 1.0}}, "dilation_rate": [1, 1]}}, {"class_name": "BatchNormalization", "inbound_nodes": [[["conv2d_20", 0, 0, {}]]], "name": "batch_normalization_20", "config": {"gamma_initializer": {"class_name": "Ones", "config": {}}, "epsilon": 0.001, "scale": false, "beta_constraint": null, "name": "batch_normalization_20", "moving_mean_initializer": {"class_name": "Zeros", "config": {}}, "beta_regularizer": null, "center": true, "beta_initializer": {"class_name": "Zeros", "config": {}}, "moving_variance_initializer": {"class_name": "Ones", "config": {}}, "momentum": 0.99, "trainable": false, "gamma_constraint": null, "axis": 3, "gamma_regularizer": null}}, {"class_name": "BatchNormalization", "inbound_nodes": [[["conv2d_23", 0, 0, {}]]], "name": "batch_normalization_23", "config": {"gamma_initializer": {"class_name": "Ones", "config": {}}, "epsilon": 0.001, "scale": false, "beta_constraint": null, "name": "batch_normalization_23", "moving_mean_initializer": {"class_name": "Zeros", "config": {}}, "beta_regularizer": null, "center": true, "beta_initializer": {"class_name": "Zeros", "config": {}}, "moving_variance_initializer": {"class_name": "Ones", "config": {}}, "momentum": 0.99, "trainable": false, "gamma_constraint": null, "axis": 3, "gamma_regularizer": null}}, {"class_name": "Activation", "inbound_nodes": [[["batch_normalization_20", 0, 0, {}]]], "name": "activation_20", "config": {"activation": "relu", "name": "activation_20", "trainable": false}}, {"class_name": "Activation", "inbound_nodes": [[["batch_normalization_23", 0, 0, {}]]], "name": "activation_23", "config": {"activation": "relu", "name": "activation_23", "trainable": false}}, {"class_name": "Conv2D", "inbound_nodes": [[["block35_1_ac", 0, 0, {}]]], "name": "conv2d_19", "config": {"bias_initializer": {"class_name": "Zeros", "config": {}}, "bias_regularizer": null, "activity_regularizer": null, "use_bias": false, "kernel_regularizer": null, "kernel_constraint": null, "kernel_size": [1, 1], "data_format": "channels_last", "filters": 32, "strides": [1, 1], "name": "conv2d_19", "trainable": false, "padding": "same", "activation": "linear", "bias_constraint": null, "kernel_initializer": {"class_name": "VarianceScaling", "config": {"mode": "fan_avg", "distribution": "uniform", "seed": null, "scale": 1.0}}, "dilation_rate": [1, 1]}}, {"class_name": "Conv2D", "inbound_nodes": [[["activation_20", 0, 0, {}]]], "name": "conv2d_21", "config": {"bias_initializer": {"class_name": "Zeros", "config": {}}, "bias_regularizer": null, "activity_regularizer": null, "use_bias": false, "kernel_regularizer": null, "kernel_constraint": null, "kernel_size": [3, 3], "data_format": "channels_last", "filters": 32, "strides": [1, 1], "name": "conv2d_21", "trainable": false, "padding": "same", "activation": "linear", "bias_constraint": null, "kernel_initializer": {"class_name": "VarianceScaling", "config": {"mode": "fan_avg", "distribution": "uniform", "seed": null, "scale": 1.0}}, "dilation_rate": [1, 1]}}, {"class_name": "Conv2D", "inbound_nodes": [[["activation_23", 0, 0, {}]]], "name": "conv2d_24", "config": {"bias_initializer": {"class_name": "Zeros", "config": {}}, "bias_regularizer": null, "activity_regularizer": null, "use_bias": false, "kernel_regularizer": null, "kernel_constraint": null, "kernel_size": [3, 3], "data_format": "channels_last", "filters": 64, "strides": [1, 1], "name": "conv2d_24", "trainable": false, "padding": "same", "activation": "linear", "bias_constraint": null, "kernel_initializer": {"class_name": "VarianceScaling", "config": {"mode": "fan_avg", "distribution": "uniform", "seed": null, "scale": 1.0}}, "dilation_rate": [1, 1]}}, {"class_name": "BatchNormalization", "inbound_nodes": [[["conv2d_19", 0, 0, {}]]], "name": "batch_normalization_19", "config": {"gamma_initializer": {"class_name": "Ones", "config": {}}, "epsilon": 0.001, "scale": false, "beta_constraint": null, "name": "batch_normalization_19", "moving_mean_initializer": {"class_name": "Zeros", "config": {}}, "beta_regularizer": null, "center": true, "beta_initializer": {"class_name": "Zeros", "config": {}}, "moving_variance_initializer": {"class_name": "Ones", "config": {}}, "momentum": 0.99, "trainable": false, "gamma_constraint": null, "axis": 3, "gamma_regularizer": null}}, {"class_name": "BatchNormalization", "inbound_nodes": [[["conv2d_21", 0, 0, {}]]], "name": "batch_normalization_21", "config": {"gamma_initializer": {"class_name": "Ones", "config": {}}, "epsilon": 0.001, "scale": false, "beta_constraint": null, "name": "batch_normalization_21", "moving_mean_initializer": {"class_name": "Zeros", "config": {}}, "beta_regularizer": null, "center": true, "beta_initializer": {"class_name": "Zeros", "config": {}}, "moving_variance_initializer": {"class_name": "Ones", "config": {}}, "momentum": 0.99, "trainable": false, "gamma_constraint": null, "axis": 3, "gamma_regularizer": null}}, {"class_name": "BatchNormalization", "inbound_nodes": [[["conv2d_24", 0, 0, {}]]], "name": "batch_normalization_24", "config": {"gamma_initializer": {"class_name": "Ones", "config": {}}, "epsilon": 0.001, "scale": false, "beta_constraint": null, "name": "batch_normalization_24", "moving_mean_initializer": {"class_name": "Zeros", "config": {}}, "beta_regularizer": null, "center": true, "beta_initializer": {"class_name": "Zeros", "config": {}}, "moving_variance_initializer": {"class_name": "Ones", "config": {}}, "momentum": 0.99, "trainable": false, "gamma_constraint": null, "axis": 3, "gamma_regularizer": null}}, {"class_name": "Activation", "inbound_nodes": [[["batch_normalization_19", 0, 0, {}]]], "name": "activation_19", "config": {"activation": "relu", "name": "activation_19", "trainable": false}}, {"class_name": "Activation", "inbound_nodes": [[["batch_normalization_21", 0, 0, {}]]], "name": "activation_21", "config": {"activation": "relu", "name": "activation_21", "trainable": false}}, {"class_name": "Activation", "inbound_nodes": [[["batch_normalization_24", 0, 0, {}]]], "name": "activation_24", "config": {"activation": "relu", "name": "activation_24", "trainable": false}}, {"class_name": "Concatenate", "inbound_nodes": [[["activation_19", 0, 0, {}], ["activation_21", 0, 0, {}], ["activation_24", 0, 0, {}]]], "name": "block35_2_mixed", "config": {"axis": 3, "name": "block35_2_mixed", "trainable": false}}, {"class_name": "Conv2D", "inbound_nodes": [[["block35_2_mixed", 0, 0, {}]]], "name": "block35_2_conv", "config": {"bias_initializer": {"class_name": "Zeros", "config": {}}, "bias_regularizer": null, "activity_regularizer": null, "use_bias": true, "kernel_regularizer": null, "kernel_constraint": null, "kernel_size": [1, 1], "data_format": "channels_last", "filters": 320, "strides": [1, 1], "name": "block35_2_conv", "trainable": false, "padding": "same", "activation": "linear", "bias_constraint": null, "kernel_initializer": {"class_name": "VarianceScaling", "config": {"mode": "fan_avg", "distribution": "uniform", "seed": null, "scale": 1.0}}, "dilation_rate": [1, 1]}}, {"class_name": "Lambda", "inbound_nodes": [[["block35_1_ac", 0, 0, {}], ["block35_2_conv", 0, 0, {}]]], "name": "block35_2", "config": {"function": ["4wIAAAAAAAAAAgAAAAMAAABTAAAAcxQAAAB8AABkAQAZfAAAZAIAGXwBABQXUykDTukAAAAA6QEA\nAACpACkC2gZpbnB1dHPaBXNjYWxlcgMAAAByAwAAAPpQL3Vzci9sb2NhbC9saWIvcHl0aG9uMy41\nL2Rpc3QtcGFja2FnZXMva2VyYXNfYXBwbGljYXRpb25zL2luY2VwdGlvbl9yZXNuZXRfdjIucHna\nCDxsYW1iZGE+qAAAAPMAAAAA\n", null, null], "name": "block35_2", "output_shape_type": "raw", "trainable": false, "function_type": "lambda", "output_shape": [35, 35, 320], "arguments": {"scale": 0.17}}}, {"class_name": "Activation", "inbound_nodes": [[["block35_2", 0, 0, {}]]], "name": "block35_2_ac", "config": {"activation": "relu", "name": "block35_2_ac", "trainable": false}}, {"class_name": "Conv2D", "inbound_nodes": [[["block35_2_ac", 0, 0, {}]]], "name": "conv2d_28", "config": {"bias_initializer": {"class_name": "Zeros", "config": {}}, "bias_regularizer": null, "activity_regularizer": null, "use_bias": false, "kernel_regularizer": null, "kernel_constraint": null, "kernel_size": [1, 1], "data_format": "channels_last", "filters": 32, "strides": [1, 1], "name": "conv2d_28", "trainable": false, "padding": "same", "activation": "linear", "bias_constraint": null, "kernel_initializer": {"class_name": "VarianceScaling", "config": {"mode": "fan_avg", "distribution": "uniform", "seed": null, "scale": 1.0}}, "dilation_rate": [1, 1]}}, {"class_name": "BatchNormalization", "inbound_nodes": [[["conv2d_28", 0, 0, {}]]], "name": "batch_normalization_28", "config": {"gamma_initializer": {"class_name": "Ones", "config": {}}, "epsilon": 0.001, "scale": false, "beta_constraint": null, "name": "batch_normalization_28", "moving_mean_initializer": {"class_name": "Zeros", "config": {}}, "beta_regularizer": null, "center": true, "beta_initializer": {"class_name": "Zeros", "config": {}}, "moving_variance_initializer": {"class_name": "Ones", "config": {}}, "momentum": 0.99, "trainable": false, "gamma_constraint": null, "axis": 3, "gamma_regularizer": null}}, {"class_name": "Activation", "inbound_nodes": [[["batch_normalization_28", 0, 0, {}]]], "name": "activation_28", "config": {"activation": "relu", "name": "activation_28", "trainable": false}}, {"class_name": "Conv2D", "inbound_nodes": [[["block35_2_ac", 0, 0, {}]]], "name": "conv2d_26", "config": {"bias_initializer": {"class_name": "Zeros", "config": {}}, "bias_regularizer": null, "activity_regularizer": null, "use_bias": false, "kernel_regularizer": null, "kernel_constraint": null, "kernel_size": [1, 1], "data_format": "channels_last", "filters": 32, "strides": [1, 1], "name": "conv2d_26", "trainable": false, "padding": "same", "activation": "linear", "bias_constraint": null, "kernel_initializer": {"class_name": "VarianceScaling", "config": {"mode": "fan_avg", "distribution": "uniform", "seed": null, "scale": 1.0}}, "dilation_rate": [1, 1]}}, {"class_name": "Conv2D", "inbound_nodes": [[["activation_28", 0, 0, {}]]], "name": "conv2d_29", "config": {"bias_initializer": {"class_name": "Zeros", "config": {}}, "bias_regularizer": null, "activity_regularizer": null, "use_bias": false, "kernel_regularizer": null, "kernel_constraint": null, "kernel_size": [3, 3], "data_format": "channels_last", "filters": 48, "strides": [1, 1], "name": "conv2d_29", "trainable": false, "padding": "same", "activation": "linear", "bias_constraint": null, "kernel_initializer": {"class_name": "VarianceScaling", "config": {"mode": "fan_avg", "distribution": "uniform", "seed": null, "scale": 1.0}}, "dilation_rate": [1, 1]}}, {"class_name": "BatchNormalization", "inbound_nodes": [[["conv2d_26", 0, 0, {}]]], "name": "batch_normalization_26", "config": {"gamma_initializer": {"class_name": "Ones", "config": {}}, "epsilon": 0.001, "scale": false, "beta_constraint": null, "name": "batch_normalization_26", "moving_mean_initializer": {"class_name": "Zeros", "config": {}}, "beta_regularizer": null, "center": true, "beta_initializer": {"class_name": "Zeros", "config": {}}, "moving_variance_initializer": {"class_name": "Ones", "config": {}}, "momentum": 0.99, "trainable": false, "gamma_constraint": null, "axis": 3, "gamma_regularizer": null}}, {"class_name": "BatchNormalization", "inbound_nodes": [[["conv2d_29", 0, 0, {}]]], "name": "batch_normalization_29", "config": {"gamma_initializer": {"class_name": "Ones", "config": {}}, "epsilon": 0.001, "scale": false, "beta_constraint": null, "name": "batch_normalization_29", "moving_mean_initializer": {"class_name": "Zeros", "config": {}}, "beta_regularizer": null, "center": true, "beta_initializer": {"class_name": "Zeros", "config": {}}, "moving_variance_initializer": {"class_name": "Ones", "config": {}}, "momentum": 0.99, "trainable": false, "gamma_constraint": null, "axis": 3, "gamma_regularizer": null}}, {"class_name": "Activation", "inbound_nodes": [[["batch_normalization_26", 0, 0, {}]]], "name": "activation_26", "config": {"activation": "relu", "name": "activation_26", "trainable": false}}, {"class_name": "Activation", "inbound_nodes": [[["batch_normalization_29", 0, 0, {}]]], "name": "activation_29", "config": {"activation": "relu", "name": "activation_29", "trainable": false}}, {"class_name": "Conv2D", "inbound_nodes": [[["block35_2_ac", 0, 0, {}]]], "name": "conv2d_25", "config": {"bias_initializer": {"class_name": "Zeros", "config": {}}, "bias_regularizer": null, "activity_regularizer": null, "use_bias": false, "kernel_regularizer": null, "kernel_constraint": null, "kernel_size": [1, 1], "data_format": "channels_last", "filters": 32, "strides": [1, 1], "name": "conv2d_25", "trainable": false, "padding": "same", "activation": "linear", "bias_constraint": null, "kernel_initializer": {"class_name": "VarianceScaling", "config": {"mode": "fan_avg", "distribution": "uniform", "seed": null, "scale": 1.0}}, "dilation_rate": [1, 1]}}, {"class_name": "Conv2D", "inbound_nodes": [[["activation_26", 0, 0, {}]]], "name": "conv2d_27", "config": {"bias_initializer": {"class_name": "Zeros", "config": {}}, "bias_regularizer": null, "activity_regularizer": null, "use_bias": false, "kernel_regularizer": null, "kernel_constraint": null, "kernel_size": [3, 3], "data_format": "channels_last", "filters": 32, "strides": [1, 1], "name": "conv2d_27", "trainable": false, "padding": "same", "activation": "linear", "bias_constraint": null, "kernel_initializer": {"class_name": "VarianceScaling", "config": {"mode": "fan_avg", "distribution": "uniform", "seed": null, "scale": 1.0}}, "dilation_rate": [1, 1]}}, {"class_name": "Conv2D", "inbound_nodes": [[["activation_29", 0, 0, {}]]], "name": "conv2d_30", "config": {"bias_initializer": {"class_name": "Zeros", "config": {}}, "bias_regularizer": null, "activity_regularizer": null, "use_bias": false, "kernel_regularizer": null, "kernel_constraint": null, "kernel_size": [3, 3], "data_format": "channels_last", "filters": 64, "strides": [1, 1], "name": "conv2d_30", "trainable": false, "padding": "same", "activation": "linear", "bias_constraint": null, "kernel_initializer": {"class_name": "VarianceScaling", "config": {"mode": "fan_avg", "distribution": "uniform", "seed": null, "scale": 1.0}}, "dilation_rate": [1, 1]}}, {"class_name": "BatchNormalization", "inbound_nodes": [[["conv2d_25", 0, 0, {}]]], "name": "batch_normalization_25", "config": {"gamma_initializer": {"class_name": "Ones", "config": {}}, "epsilon": 0.001, "scale": false, "beta_constraint": null, "name": "batch_normalization_25", "moving_mean_initializer": {"class_name": "Zeros", "config": {}}, "beta_regularizer": null, "center": true, "beta_initializer": {"class_name": "Zeros", "config": {}}, "moving_variance_initializer": {"class_name": "Ones", "config": {}}, "momentum": 0.99, "trainable": false, "gamma_constraint": null, "axis": 3, "gamma_regularizer": null}}, {"class_name": "BatchNormalization", "inbound_nodes": [[["conv2d_27", 0, 0, {}]]], "name": "batch_normalization_27", "config": {"gamma_initializer": {"class_name": "Ones", "config": {}}, "epsilon": 0.001, "scale": false, "beta_constraint": null, "name": "batch_normalization_27", "moving_mean_initializer": {"class_name": "Zeros", "config": {}}, "beta_regularizer": null, "center": true, "beta_initializer": {"class_name": "Zeros", "config": {}}, "moving_variance_initializer": {"class_name": "Ones", "config": {}}, "momentum": 0.99, "trainable": false, "gamma_constraint": null, "axis": 3, "gamma_regularizer": null}}, {"class_name": "BatchNormalization", "inbound_nodes": [[["conv2d_30", 0, 0, {}]]], "name": "batch_normalization_30", "config": {"gamma_initializer": {"class_name": "Ones", "config": {}}, "epsilon": 0.001, "scale": false, "beta_constraint": null, "name": "batch_normalization_30", "moving_mean_initializer": {"class_name": "Zeros", "config": {}}, "beta_regularizer": null, "center": true, "beta_initializer": {"class_name": "Zeros", "config": {}}, "moving_variance_initializer": {"class_name": "Ones", "config": {}}, "momentum": 0.99, "trainable": false, "gamma_constraint": null, "axis": 3, "gamma_regularizer": null}}, {"class_name": "Activation", "inbound_nodes": [[["batch_normalization_25", 0, 0, {}]]], "name": "activation_25", "config": {"activation": "relu", "name": "activation_25", "trainable": false}}, {"class_name": "Activation", "inbound_nodes": [[["batch_normalization_27", 0, 0, {}]]], "name": "activation_27", "config": {"activation": "relu", "name": "activation_27", "trainable": false}}, {"class_name": "Activation", "inbound_nodes": [[["batch_normalization_30", 0, 0, {}]]], "name": "activation_30", "config": {"activation": "relu", "name": "activation_30", "trainable": false}}, {"class_name": "Concatenate", "inbound_nodes": [[["activation_25", 0, 0, {}], ["activation_27", 0, 0, {}], ["activation_30", 0, 0, {}]]], "name": "block35_3_mixed", "config": {"axis": 3, "name": "block35_3_mixed", "trainable": false}}, {"class_name": "Conv2D", "inbound_nodes": [[["block35_3_mixed", 0, 0, {}]]], "name": "block35_3_conv", "config": {"bias_initializer": {"class_name": "Zeros", "config": {}}, "bias_regularizer": null, "activity_regularizer": null, "use_bias": true, "kernel_regularizer": null, "kernel_constraint": null, "kernel_size": [1, 1], "data_format": "channels_last", "filters": 320, "strides": [1, 1], "name": "block35_3_conv", "trainable": false, "padding": "same", "activation": "linear", "bias_constraint": null, "kernel_initializer": {"class_name": "VarianceScaling", "config": {"mode": "fan_avg", "distribution": "uniform", "seed": null, "scale": 1.0}}, "dilation_rate": [1, 1]}}, {"class_name": "Lambda", "inbound_nodes": [[["block35_2_ac", 0, 0, {}], ["block35_3_conv", 0, 0, {}]]], "name": "block35_3", "config": {"function": ["4wIAAAAAAAAAAgAAAAMAAABTAAAAcxQAAAB8AABkAQAZfAAAZAIAGXwBABQXUykDTukAAAAA6QEA\nAACpACkC2gZpbnB1dHPaBXNjYWxlcgMAAAByAwAAAPpQL3Vzci9sb2NhbC9saWIvcHl0aG9uMy41\nL2Rpc3QtcGFja2FnZXMva2VyYXNfYXBwbGljYXRpb25zL2luY2VwdGlvbl9yZXNuZXRfdjIucHna\nCDxsYW1iZGE+qAAAAPMAAAAA\n", null, null], "name": "block35_3", "output_shape_type": "raw", "trainable": false, "function_type": "lambda", "output_shape": [35, 35, 320], "arguments": {"scale": 0.17}}}, {"class_name": "Activation", "inbound_nodes": [[["block35_3", 0, 0, {}]]], "name": "block35_3_ac", "config": {"activation": "relu", "name": "block35_3_ac", "trainable": false}}, {"class_name": "Conv2D", "inbound_nodes": [[["block35_3_ac", 0, 0, {}]]], "name": "conv2d_34", "config": {"bias_initializer": {"class_name": "Zeros", "config": {}}, "bias_regularizer": null, "activity_regularizer": null, "use_bias": false, "kernel_regularizer": null, "kernel_constraint": null, "kernel_size": [1, 1], "data_format": "channels_last", "filters": 32, "strides": [1, 1], "name": "conv2d_34", "trainable": false, "padding": "same", "activation": "linear", "bias_constraint": null, "kernel_initializer": {"class_name": "VarianceScaling", "config": {"mode": "fan_avg", "distribution": "uniform", "seed": null, "scale": 1.0}}, "dilation_rate": [1, 1]}}, {"class_name": "BatchNormalization", "inbound_nodes": [[["conv2d_34", 0, 0, {}]]], "name": "batch_normalization_34", "config": {"gamma_initializer": {"class_name": "Ones", "config": {}}, "epsilon": 0.001, "scale": false, "beta_constraint": null, "name": "batch_normalization_34", "moving_mean_initializer": {"class_name": "Zeros", "config": {}}, "beta_regularizer": null, "center": true, "beta_initializer": {"class_name": "Zeros", "config": {}}, "moving_variance_initializer": {"class_name": "Ones", "config": {}}, "momentum": 0.99, "trainable": false, "gamma_constraint": null, "axis": 3, "gamma_regularizer": null}}, {"class_name": "Activation", "inbound_nodes": [[["batch_normalization_34", 0, 0, {}]]], "name": "activation_34", "config": {"activation": "relu", "name": "activation_34", "trainable": false}}, {"class_name": "Conv2D", "inbound_nodes": [[["block35_3_ac", 0, 0, {}]]], "name": "conv2d_32", "config": {"bias_initializer": {"class_name": "Zeros", "config": {}}, "bias_regularizer": null, "activity_regularizer": null, "use_bias": false, "kernel_regularizer": null, "kernel_constraint": null, "kernel_size": [1, 1], "data_format": "channels_last", "filters": 32, "strides": [1, 1], "name": "conv2d_32", "trainable": false, "padding": "same", "activation": "linear", "bias_constraint": null, "kernel_initializer": {"class_name": "VarianceScaling", "config": {"mode": "fan_avg", "distribution": "uniform", "seed": null, "scale": 1.0}}, "dilation_rate": [1, 1]}}, {"class_name": "Conv2D", "inbound_nodes": [[["activation_34", 0, 0, {}]]], "name": "conv2d_35", "config": {"bias_initializer": {"class_name": "Zeros", "config": {}}, "bias_regularizer": null, "activity_regularizer": null, "use_bias": false, "kernel_regularizer": null, "kernel_constraint": null, "kernel_size": [3, 3], "data_format": "channels_last", "filters": 48, "strides": [1, 1], "name": "conv2d_35", "trainable": false, "padding": "same", "activation": "linear", "bias_constraint": null, "kernel_initializer": {"class_name": "VarianceScaling", "config": {"mode": "fan_avg", "distribution": "uniform", "seed": null, "scale": 1.0}}, "dilation_rate": [1, 1]}}, {"class_name": "BatchNormalization", "inbound_nodes": [[["conv2d_32", 0, 0, {}]]], "name": "batch_normalization_32", "config": {"gamma_initializer": {"class_name": "Ones", "config": {}}, "epsilon": 0.001, "scale": false, "beta_constraint": null, "name": "batch_normalization_32", "moving_mean_initializer": {"class_name": "Zeros", "config": {}}, "beta_regularizer": null, "center": true, "beta_initializer": {"class_name": "Zeros", "config": {}}, "moving_variance_initializer": {"class_name": "Ones", "config": {}}, "momentum": 0.99, "trainable": false, "gamma_constraint": null, "axis": 3, "gamma_regularizer": null}}, {"class_name": "BatchNormalization", "inbound_nodes": [[["conv2d_35", 0, 0, {}]]], "name": "batch_normalization_35", "config": {"gamma_initializer": {"class_name": "Ones", "config": {}}, "epsilon": 0.001, "scale": false, "beta_constraint": null, "name": "batch_normalization_35", "moving_mean_initializer": {"class_name": "Zeros", "config": {}}, "beta_regularizer": null, "center": true, "beta_initializer": {"class_name": "Zeros", "config": {}}, "moving_variance_initializer": {"class_name": "Ones", "config": {}}, "momentum": 0.99, "trainable": false, "gamma_constraint": null, "axis": 3, "gamma_regularizer": null}}, {"class_name": "Activation", "inbound_nodes": [[["batch_normalization_32", 0, 0, {}]]], "name": "activation_32", "config": {"activation": "relu", "name": "activation_32", "trainable": false}}, {"class_name": "Activation", "inbound_nodes": [[["batch_normalization_35", 0, 0, {}]]], "name": "activation_35", "config": {"activation": "relu", "name": "activation_35", "trainable": false}}, {"class_name": "Conv2D", "inbound_nodes": [[["block35_3_ac", 0, 0, {}]]], "name": "conv2d_31", "config": {"bias_initializer": {"class_name": "Zeros", "config": {}}, "bias_regularizer": null, "activity_regularizer": null, "use_bias": false, "kernel_regularizer": null, "kernel_constraint": null, "kernel_size": [1, 1], "data_format": "channels_last", "filters": 32, "strides": [1, 1], "name": "conv2d_31", "trainable": false, "padding": "same", "activation": "linear", "bias_constraint": null, "kernel_initializer": {"class_name": "VarianceScaling", "config": {"mode": "fan_avg", "distribution": "uniform", "seed": null, "scale": 1.0}}, "dilation_rate": [1, 1]}}, {"class_name": "Conv2D", "inbound_nodes": [[["activation_32", 0, 0, {}]]], "name": "conv2d_33", "config": {"bias_initializer": {"class_name": "Zeros", "config": {}}, "bias_regularizer": null, "activity_regularizer": null, "use_bias": false, "kernel_regularizer": null, "kernel_constraint": null, "kernel_size": [3, 3], "data_format": "channels_last", "filters": 32, "strides": [1, 1], "name": "conv2d_33", "trainable": false, "padding": "same", "activation": "linear", "bias_constraint": null, "kernel_initializer": {"class_name": "VarianceScaling", "config": {"mode": "fan_avg", "distribution": "uniform", "seed": null, "scale": 1.0}}, "dilation_rate": [1, 1]}}, {"class_name": "Conv2D", "inbound_nodes": [[["activation_35", 0, 0, {}]]], "name": "conv2d_36", "config": {"bias_initializer": {"class_name": "Zeros", "config": {}}, "bias_regularizer": null, "activity_regularizer": null, "use_bias": false, "kernel_regularizer": null, "kernel_constraint": null, "kernel_size": [3, 3], "data_format": "channels_last", "filters": 64, "strides": [1, 1], "name": "conv2d_36", "trainable": false, "padding": "same", "activation": "linear", "bias_constraint": null, "kernel_initializer": {"class_name": "VarianceScaling", "config": {"mode": "fan_avg", "distribution": "uniform", "seed": null, "scale": 1.0}}, "dilation_rate": [1, 1]}}, {"class_name": "BatchNormalization", "inbound_nodes": [[["conv2d_31", 0, 0, {}]]], "name": "batch_normalization_31", "config": {"gamma_initializer": {"class_name": "Ones", "config": {}}, "epsilon": 0.001, "scale": false, "beta_constraint": null, "name": "batch_normalization_31", "moving_mean_initializer": {"class_name": "Zeros", "config": {}}, "beta_regularizer": null, "center": true, "beta_initializer": {"class_name": "Zeros", "config": {}}, "moving_variance_initializer": {"class_name": "Ones", "config": {}}, "momentum": 0.99, "trainable": false, "gamma_constraint": null, "axis": 3, "gamma_regularizer": null}}, {"class_name": "BatchNormalization", "inbound_nodes": [[["conv2d_33", 0, 0, {}]]], "name": "batch_normalization_33", "config": {"gamma_initializer": {"class_name": "Ones", "config": {}}, "epsilon": 0.001, "scale": false, "beta_constraint": null, "name": "batch_normalization_33", "moving_mean_initializer": {"class_name": "Zeros", "config": {}}, "beta_regularizer": null, "center": true, "beta_initializer": {"class_name": "Zeros", "config": {}}, "moving_variance_initializer": {"class_name": "Ones", "config": {}}, "momentum": 0.99, "trainable": false, "gamma_constraint": null, "axis": 3, "gamma_regularizer": null}}, {"class_name": "BatchNormalization", "inbound_nodes": [[["conv2d_36", 0, 0, {}]]], "name": "batch_normalization_36", "config": {"gamma_initializer": {"class_name": "Ones", "config": {}}, "epsilon": 0.001, "scale": false, "beta_constraint": null, "name": "batch_normalization_36", "moving_mean_initializer": {"class_name": "Zeros", "config": {}}, "beta_regularizer": null, "center": true, "beta_initializer": {"class_name": "Zeros", "config": {}}, "moving_variance_initializer": {"class_name": "Ones", "config": {}}, "momentum": 0.99, "trainable": false, "gamma_constraint": null, "axis": 3, "gamma_regularizer": null}}, {"class_name": "Activation", "inbound_nodes": [[["batch_normalization_31", 0, 0, {}]]], "name": "activation_31", "config": {"activation": "relu", "name": "activation_31", "trainable": false}}, {"class_name": "Activation", "inbound_nodes": [[["batch_normalization_33", 0, 0, {}]]], "name": "activation_33", "config": {"activation": "relu", "name": "activation_33", "trainable": false}}, {"class_name": "Activation", "inbound_nodes": [[["batch_normalization_36", 0, 0, {}]]], "name": "activation_36", "config": {"activation": "relu", "name": "activation_36", "trainable": false}}, {"class_name": "Concatenate", "inbound_nodes": [[["activation_31", 0, 0, {}], ["activation_33", 0, 0, {}], ["activation_36", 0, 0, {}]]], "name": "block35_4_mixed", "config": {"axis": 3, "name": "block35_4_mixed", "trainable": false}}, {"class_name": "Conv2D", "inbound_nodes": [[["block35_4_mixed", 0, 0, {}]]], "name": "block35_4_conv", "config": {"bias_initializer": {"class_name": "Zeros", "config": {}}, "bias_regularizer": null, "activity_regularizer": null, "use_bias": true, "kernel_regularizer": null, "kernel_constraint": null, "kernel_size": [1, 1], "data_format": "channels_last", "filters": 320, "strides": [1, 1], "name": "block35_4_conv", "trainable": false, "padding": "same", "activation": "linear", "bias_constraint": null, "kernel_initializer": {"class_name": "VarianceScaling", "config": {"mode": "fan_avg", "distribution": "uniform", "seed": null, "scale": 1.0}}, "dilation_rate": [1, 1]}}, {"class_name": "Lambda", "inbound_nodes": [[["block35_3_ac", 0, 0, {}], ["block35_4_conv", 0, 0, {}]]], "name": "block35_4", "config": {"function": ["4wIAAAAAAAAAAgAAAAMAAABTAAAAcxQAAAB8AABkAQAZfAAAZAIAGXwBABQXUykDTukAAAAA6QEA\nAACpACkC2gZpbnB1dHPaBXNjYWxlcgMAAAByAwAAAPpQL3Vzci9sb2NhbC9saWIvcHl0aG9uMy41\nL2Rpc3QtcGFja2FnZXMva2VyYXNfYXBwbGljYXRpb25zL2luY2VwdGlvbl9yZXNuZXRfdjIucHna\nCDxsYW1iZGE+qAAAAPMAAAAA\n", null, null], "name": "block35_4", "output_shape_type": "raw", "trainable": false, "function_type": "lambda", "output_shape": [35, 35, 320], "arguments": {"scale": 0.17}}}, {"class_name": "Activation", "inbound_nodes": [[["block35_4", 0, 0, {}]]], "name": "block35_4_ac", "config": {"activation": "relu", "name": "block35_4_ac", "trainable": false}}, {"class_name": "Conv2D", "inbound_nodes": [[["block35_4_ac", 0, 0, {}]]], "name": "conv2d_40", "config": {"bias_initializer": {"class_name": "Zeros", "config": {}}, "bias_regularizer": null, "activity_regularizer": null, "use_bias": false, "kernel_regularizer": null, "kernel_constraint": null, "kernel_size": [1, 1], "data_format": "channels_last", "filters": 32, "strides": [1, 1], "name": "conv2d_40", "trainable": false, "padding": "same", "activation": "linear", "bias_constraint": null, "kernel_initializer": {"class_name": "VarianceScaling", "config": {"mode": "fan_avg", "distribution": "uniform", "seed": null, "scale": 1.0}}, "dilation_rate": [1, 1]}}, {"class_name": "BatchNormalization", "inbound_nodes": [[["conv2d_40", 0, 0, {}]]], "name": "batch_normalization_40", "config": {"gamma_initializer": {"class_name": "Ones", "config": {}}, "epsilon": 0.001, "scale": false, "beta_constraint": null, "name": "batch_normalization_40", "moving_mean_initializer": {"class_name": "Zeros", "config": {}}, "beta_regularizer": null, "center": true, "beta_initializer": {"class_name": "Zeros", "config": {}}, "moving_variance_initializer": {"class_name": "Ones", "config": {}}, "momentum": 0.99, "trainable": false, "gamma_constraint": null, "axis": 3, "gamma_regularizer": null}}, {"class_name": "Activation", "inbound_nodes": [[["batch_normalization_40", 0, 0, {}]]], "name": "activation_40", "config": {"activation": "relu", "name": "activation_40", "trainable": false}}, {"class_name": "Conv2D", "inbound_nodes": [[["block35_4_ac", 0, 0, {}]]], "name": "conv2d_38", "config": {"bias_initializer": {"class_name": "Zeros", "config": {}}, "bias_regularizer": null, "activity_regularizer": null, "use_bias": false, "kernel_regularizer": null, "kernel_constraint": null, "kernel_size": [1, 1], "data_format": "channels_last", "filters": 32, "strides": [1, 1], "name": "conv2d_38", "trainable": false, "padding": "same", "activation": "linear", "bias_constraint": null, "kernel_initializer": {"class_name": "VarianceScaling", "config": {"mode": "fan_avg", "distribution": "uniform", "seed": null, "scale": 1.0}}, "dilation_rate": [1, 1]}}, {"class_name": "Conv2D", "inbound_nodes": [[["activation_40", 0, 0, {}]]], "name": "conv2d_41", "config": {"bias_initializer": {"class_name": "Zeros", "config": {}}, "bias_regularizer": null, "activity_regularizer": null, "use_bias": false, "kernel_regularizer": null, "kernel_constraint": null, "kernel_size": [3, 3], "data_format": "channels_last", "filters": 48, "strides": [1, 1], "name": "conv2d_41", "trainable": false, "padding": "same", "activation": "linear", "bias_constraint": null, "kernel_initializer": {"class_name": "VarianceScaling", "config": {"mode": "fan_avg", "distribution": "uniform", "seed": null, "scale": 1.0}}, "dilation_rate": [1, 1]}}, {"class_name": "BatchNormalization", "inbound_nodes": [[["conv2d_38", 0, 0, {}]]], "name": "batch_normalization_38", "config": {"gamma_initializer": {"class_name": "Ones", "config": {}}, "epsilon": 0.001, "scale": false, "beta_constraint": null, "name": "batch_normalization_38", "moving_mean_initializer": {"class_name": "Zeros", "config": {}}, "beta_regularizer": null, "center": true, "beta_initializer": {"class_name": "Zeros", "config": {}}, "moving_variance_initializer": {"class_name": "Ones", "config": {}}, "momentum": 0.99, "trainable": false, "gamma_constraint": null, "axis": 3, "gamma_regularizer": null}}, {"class_name": "BatchNormalization", "inbound_nodes": [[["conv2d_41", 0, 0, {}]]], "name": "batch_normalization_41", "config": {"gamma_initializer": {"class_name": "Ones", "config": {}}, "epsilon": 0.001, "scale": false, "beta_constraint": null, "name": "batch_normalization_41", "moving_mean_initializer": {"class_name": "Zeros", "config": {}}, "beta_regularizer": null, "center": true, "beta_initializer": {"class_name": "Zeros", "config": {}}, "moving_variance_initializer": {"class_name": "Ones", "config": {}}, "momentum": 0.99, "trainable": false, "gamma_constraint": null, "axis": 3, "gamma_regularizer": null}}, {"class_name": "Activation", "inbound_nodes": [[["batch_normalization_38", 0, 0, {}]]], "name": "activation_38", "config": {"activation": "relu", "name": "activation_38", "trainable": false}}, {"class_name": "Activation", "inbound_nodes": [[["batch_normalization_41", 0, 0, {}]]], "name": "activation_41", "config": {"activation": "relu", "name": "activation_41", "trainable": false}}, {"class_name": "Conv2D", "inbound_nodes": [[["block35_4_ac", 0, 0, {}]]], "name": "conv2d_37", "config": {"bias_initializer": {"class_name": "Zeros", "config": {}}, "bias_regularizer": null, "activity_regularizer": null, "use_bias": false, "kernel_regularizer": null, "kernel_constraint": null, "kernel_size": [1, 1], "data_format": "channels_last", "filters": 32, "strides": [1, 1], "name": "conv2d_37", "trainable": false, "padding": "same", "activation": "linear", "bias_constraint": null, "kernel_initializer": {"class_name": "VarianceScaling", "config": {"mode": "fan_avg", "distribution": "uniform", "seed": null, "scale": 1.0}}, "dilation_rate": [1, 1]}}, {"class_name": "Conv2D", "inbound_nodes": [[["activation_38", 0, 0, {}]]], "name": "conv2d_39", "config": {"bias_initializer": {"class_name": "Zeros", "config": {}}, "bias_regularizer": null, "activity_regularizer": null, "use_bias": false, "kernel_regularizer": null, "kernel_constraint": null, "kernel_size": [3, 3], "data_format": "channels_last", "filters": 32, "strides": [1, 1], "name": "conv2d_39", "trainable": false, "padding": "same", "activation": "linear", "bias_constraint": null, "kernel_initializer": {"class_name": "VarianceScaling", "config": {"mode": "fan_avg", "distribution": "uniform", "seed": null, "scale": 1.0}}, "dilation_rate": [1, 1]}}, {"class_name": "Conv2D", "inbound_nodes": [[["activation_41", 0, 0, {}]]], "name": "conv2d_42", "config": {"bias_initializer": {"class_name": "Zeros", "config": {}}, "bias_regularizer": null, "activity_regularizer": null, "use_bias": false, "kernel_regularizer": null, "kernel_constraint": null, "kernel_size": [3, 3], "data_format": "channels_last", "filters": 64, "strides": [1, 1], "name": "conv2d_42", "trainable": false, "padding": "same", "activation": "linear", "bias_constraint": null, "kernel_initializer": {"class_name": "VarianceScaling", "config": {"mode": "fan_avg", "distribution": "uniform", "seed": null, "scale": 1.0}}, "dilation_rate": [1, 1]}}, {"class_name": "BatchNormalization", "inbound_nodes": [[["conv2d_37", 0, 0, {}]]], "name": "batch_normalization_37", "config": {"gamma_initializer": {"class_name": "Ones", "config": {}}, "epsilon": 0.001, "scale": false, "beta_constraint": null, "name": "batch_normalization_37", "moving_mean_initializer": {"class_name": "Zeros", "config": {}}, "beta_regularizer": null, "center": true, "beta_initializer": {"class_name": "Zeros", "config": {}}, "moving_variance_initializer": {"class_name": "Ones", "config": {}}, "momentum": 0.99, "trainable": false, "gamma_constraint": null, "axis": 3, "gamma_regularizer": null}}, {"class_name": "BatchNormalization", "inbound_nodes": [[["conv2d_39", 0, 0, {}]]], "name": "batch_normalization_39", "config": {"gamma_initializer": {"class_name": "Ones", "config": {}}, "epsilon": 0.001, "scale": false, "beta_constraint": null, "name": "batch_normalization_39", "moving_mean_initializer": {"class_name": "Zeros", "config": {}}, "beta_regularizer": null, "center": true, "beta_initializer": {"class_name": "Zeros", "config": {}}, "moving_variance_initializer": {"class_name": "Ones", "config": {}}, "momentum": 0.99, "trainable": false, "gamma_constraint": null, "axis": 3, "gamma_regularizer": null}}, {"class_name": "BatchNormalization", "inbound_nodes": [[["conv2d_42", 0, 0, {}]]], "name": "batch_normalization_42", "config": {"gamma_initializer": {"class_name": "Ones", "config": {}}, "epsilon": 0.001, "scale": false, "beta_constraint": null, "name": "batch_normalization_42", "moving_mean_initializer": {"class_name": "Zeros", "config": {}}, "beta_regularizer": null, "center": true, "beta_initializer": {"class_name": "Zeros", "config": {}}, "moving_variance_initializer": {"class_name": "Ones", "config": {}}, "momentum": 0.99, "trainable": false, "gamma_constraint": null, "axis": 3, "gamma_regularizer": null}}, {"class_name": "Activation", "inbound_nodes": [[["batch_normalization_37", 0, 0, {}]]], "name": "activation_37", "config": {"activation": "relu", "name": "activation_37", "trainable": false}}, {"class_name": "Activation", "inbound_nodes": [[["batch_normalization_39", 0, 0, {}]]], "name": "activation_39", "config": {"activation": "relu", "name": "activation_39", "trainable": false}}, {"class_name": "Activation", "inbound_nodes": [[["batch_normalization_42", 0, 0, {}]]], "name": "activation_42", "config": {"activation": "relu", "name": "activation_42", "trainable": false}}, {"class_name": "Concatenate", "inbound_nodes": [[["activation_37", 0, 0, {}], ["activation_39", 0, 0, {}], ["activation_42", 0, 0, {}]]], "name": "block35_5_mixed", "config": {"axis": 3, "name": "block35_5_mixed", "trainable": false}}, {"class_name": "Conv2D", "inbound_nodes": [[["block35_5_mixed", 0, 0, {}]]], "name": "block35_5_conv", "config": {"bias_initializer": {"class_name": "Zeros", "config": {}}, "bias_regularizer": null, "activity_regularizer": null, "use_bias": true, "kernel_regularizer": null, "kernel_constraint": null, "kernel_size": [1, 1], "data_format": "channels_last", "filters": 320, "strides": [1, 1], "name": "block35_5_conv", "trainable": false, "padding": "same", "activation": "linear", "bias_constraint": null, "kernel_initializer": {"class_name": "VarianceScaling", "config": {"mode": "fan_avg", "distribution": "uniform", "seed": null, "scale": 1.0}}, "dilation_rate": [1, 1]}}, {"class_name": "Lambda", "inbound_nodes": [[["block35_4_ac", 0, 0, {}], ["block35_5_conv", 0, 0, {}]]], "name": "block35_5", "config": {"function": ["4wIAAAAAAAAAAgAAAAMAAABTAAAAcxQAAAB8AABkAQAZfAAAZAIAGXwBABQXUykDTukAAAAA6QEA\nAACpACkC2gZpbnB1dHPaBXNjYWxlcgMAAAByAwAAAPpQL3Vzci9sb2NhbC9saWIvcHl0aG9uMy41\nL2Rpc3QtcGFja2FnZXMva2VyYXNfYXBwbGljYXRpb25zL2luY2VwdGlvbl9yZXNuZXRfdjIucHna\nCDxsYW1iZGE+qAAAAPMAAAAA\n", null, null], "name": "block35_5", "output_shape_type": "raw", "trainable": false, "function_type": "lambda", "output_shape": [35, 35, 320], "arguments": {"scale": 0.17}}}, {"class_name": "Activation", "inbound_nodes": [[["block35_5", 0, 0, {}]]], "name": "block35_5_ac", "config": {"activation": "relu", "name": "block35_5_ac", "trainable": false}}, {"class_name": "Conv2D", "inbound_nodes": [[["block35_5_ac", 0, 0, {}]]], "name": "conv2d_46", "config": {"bias_initializer": {"class_name": "Zeros", "config": {}}, "bias_regularizer": null, "activity_regularizer": null, "use_bias": false, "kernel_regularizer": null, "kernel_constraint": null, "kernel_size": [1, 1], "data_format": "channels_last", "filters": 32, "strides": [1, 1], "name": "conv2d_46", "trainable": false, "padding": "same", "activation": "linear", "bias_constraint": null, "kernel_initializer": {"class_name": "VarianceScaling", "config": {"mode": "fan_avg", "distribution": "uniform", "seed": null, "scale": 1.0}}, "dilation_rate": [1, 1]}}, {"class_name": "BatchNormalization", "inbound_nodes": [[["conv2d_46", 0, 0, {}]]], "name": "batch_normalization_46", "config": {"gamma_initializer": {"class_name": "Ones", "config": {}}, "epsilon": 0.001, "scale": false, "beta_constraint": null, "name": "batch_normalization_46", "moving_mean_initializer": {"class_name": "Zeros", "config": {}}, "beta_regularizer": null, "center": true, "beta_initializer": {"class_name": "Zeros", "config": {}}, "moving_variance_initializer": {"class_name": "Ones", "config": {}}, "momentum": 0.99, "trainable": false, "gamma_constraint": null, "axis": 3, "gamma_regularizer": null}}, {"class_name": "Activation", "inbound_nodes": [[["batch_normalization_46", 0, 0, {}]]], "name": "activation_46", "config": {"activation": "relu", "name": "activation_46", "trainable": false}}, {"class_name": "Conv2D", "inbound_nodes": [[["block35_5_ac", 0, 0, {}]]], "name": "conv2d_44", "config": {"bias_initializer": {"class_name": "Zeros", "config": {}}, "bias_regularizer": null, "activity_regularizer": null, "use_bias": false, "kernel_regularizer": null, "kernel_constraint": null, "kernel_size": [1, 1], "data_format": "channels_last", "filters": 32, "strides": [1, 1], "name": "conv2d_44", "trainable": false, "padding": "same", "activation": "linear", "bias_constraint": null, "kernel_initializer": {"class_name": "VarianceScaling", "config": {"mode": "fan_avg", "distribution": "uniform", "seed": null, "scale": 1.0}}, "dilation_rate": [1, 1]}}, {"class_name": "Conv2D", "inbound_nodes": [[["activation_46", 0, 0, {}]]], "name": "conv2d_47", "config": {"bias_initializer": {"class_name": "Zeros", "config": {}}, "bias_regularizer": null, "activity_regularizer": null, "use_bias": false, "kernel_regularizer": null, "kernel_constraint": null, "kernel_size": [3, 3], "data_format": "channels_last", "filters": 48, "strides": [1, 1], "name": "conv2d_47", "trainable": false, "padding": "same", "activation": "linear", "bias_constraint": null, "kernel_initializer": {"class_name": "VarianceScaling", "config": {"mode": "fan_avg", "distribution": "uniform", "seed": null, "scale": 1.0}}, "dilation_rate": [1, 1]}}, {"class_name": "BatchNormalization", "inbound_nodes": [[["conv2d_44", 0, 0, {}]]], "name": "batch_normalization_44", "config": {"gamma_initializer": {"class_name": "Ones", "config": {}}, "epsilon": 0.001, "scale": false, "beta_constraint": null, "name": "batch_normalization_44", "moving_mean_initializer": {"class_name": "Zeros", "config": {}}, "beta_regularizer": null, "center": true, "beta_initializer": {"class_name": "Zeros", "config": {}}, "moving_variance_initializer": {"class_name": "Ones", "config": {}}, "momentum": 0.99, "trainable": false, "gamma_constraint": null, "axis": 3, "gamma_regularizer": null}}, {"class_name": "BatchNormalization", "inbound_nodes": [[["conv2d_47", 0, 0, {}]]], "name": "batch_normalization_47", "config": {"gamma_initializer": {"class_name": "Ones", "config": {}}, "epsilon": 0.001, "scale": false, "beta_constraint": null, "name": "batch_normalization_47", "moving_mean_initializer": {"class_name": "Zeros", "config": {}}, "beta_regularizer": null, "center": true, "beta_initializer": {"class_name": "Zeros", "config": {}}, "moving_variance_initializer": {"class_name": "Ones", "config": {}}, "momentum": 0.99, "trainable": false, "gamma_constraint": null, "axis": 3, "gamma_regularizer": null}}, {"class_name": "Activation", "inbound_nodes": [[["batch_normalization_44", 0, 0, {}]]], "name": "activation_44", "config": {"activation": "relu", "name": "activation_44", "trainable": false}}, {"class_name": "Activation", "inbound_nodes": [[["batch_normalization_47", 0, 0, {}]]], "name": "activation_47", "config": {"activation": "relu", "name": "activation_47", "trainable": false}}, {"class_name": "Conv2D", "inbound_nodes": [[["block35_5_ac", 0, 0, {}]]], "name": "conv2d_43", "config": {"bias_initializer": {"class_name": "Zeros", "config": {}}, "bias_regularizer": null, "activity_regularizer": null, "use_bias": false, "kernel_regularizer": null, "kernel_constraint": null, "kernel_size": [1, 1], "data_format": "channels_last", "filters": 32, "strides": [1, 1], "name": "conv2d_43", "trainable": false, "padding": "same", "activation": "linear", "bias_constraint": null, "kernel_initializer": {"class_name": "VarianceScaling", "config": {"mode": "fan_avg", "distribution": "uniform", "seed": null, "scale": 1.0}}, "dilation_rate": [1, 1]}}, {"class_name": "Conv2D", "inbound_nodes": [[["activation_44", 0, 0, {}]]], "name": "conv2d_45", "config": {"bias_initializer": {"class_name": "Zeros", "config": {}}, "bias_regularizer": null, "activity_regularizer": null, "use_bias": false, "kernel_regularizer": null, "kernel_constraint": null, "kernel_size": [3, 3], "data_format": "channels_last", "filters": 32, "strides": [1, 1], "name": "conv2d_45", "trainable": false, "padding": "same", "activation": "linear", "bias_constraint": null, "kernel_initializer": {"class_name": "VarianceScaling", "config": {"mode": "fan_avg", "distribution": "uniform", "seed": null, "scale": 1.0}}, "dilation_rate": [1, 1]}}, {"class_name": "Conv2D", "inbound_nodes": [[["activation_47", 0, 0, {}]]], "name": "conv2d_48", "config": {"bias_initializer": {"class_name": "Zeros", "config": {}}, "bias_regularizer": null, "activity_regularizer": null, "use_bias": false, "kernel_regularizer": null, "kernel_constraint": null, "kernel_size": [3, 3], "data_format": "channels_last", "filters": 64, "strides": [1, 1], "name": "conv2d_48", "trainable": false, "padding": "same", "activation": "linear", "bias_constraint": null, "kernel_initializer": {"class_name": "VarianceScaling", "config": {"mode": "fan_avg", "distribution": "uniform", "seed": null, "scale": 1.0}}, "dilation_rate": [1, 1]}}, {"class_name": "BatchNormalization", "inbound_nodes": [[["conv2d_43", 0, 0, {}]]], "name": "batch_normalization_43", "config": {"gamma_initializer": {"class_name": "Ones", "config": {}}, "epsilon": 0.001, "scale": false, "beta_constraint": null, "name": "batch_normalization_43", "moving_mean_initializer": {"class_name": "Zeros", "config": {}}, "beta_regularizer": null, "center": true, "beta_initializer": {"class_name": "Zeros", "config": {}}, "moving_variance_initializer": {"class_name": "Ones", "config": {}}, "momentum": 0.99, "trainable": false, "gamma_constraint": null, "axis": 3, "gamma_regularizer": null}}, {"class_name": "BatchNormalization", "inbound_nodes": [[["conv2d_45", 0, 0, {}]]], "name": "batch_normalization_45", "config": {"gamma_initializer": {"class_name": "Ones", "config": {}}, "epsilon": 0.001, "scale": false, "beta_constraint": null, "name": "batch_normalization_45", "moving_mean_initializer": {"class_name": "Zeros", "config": {}}, "beta_regularizer": null, "center": true, "beta_initializer": {"class_name": "Zeros", "config": {}}, "moving_variance_initializer": {"class_name": "Ones", "config": {}}, "momentum": 0.99, "trainable": false, "gamma_constraint": null, "axis": 3, "gamma_regularizer": null}}, {"class_name": "BatchNormalization", "inbound_nodes": [[["conv2d_48", 0, 0, {}]]], "name": "batch_normalization_48", "config": {"gamma_initializer": {"class_name": "Ones", "config": {}}, "epsilon": 0.001, "scale": false, "beta_constraint": null, "name": "batch_normalization_48", "moving_mean_initializer": {"class_name": "Zeros", "config": {}}, "beta_regularizer": null, "center": true, "beta_initializer": {"class_name": "Zeros", "config": {}}, "moving_variance_initializer": {"class_name": "Ones", "config": {}}, "momentum": 0.99, "trainable": false, "gamma_constraint": null, "axis": 3, "gamma_regularizer": null}}, {"class_name": "Activation", "inbound_nodes": [[["batch_normalization_43", 0, 0, {}]]], "name": "activation_43", "config": {"activation": "relu", "name": "activation_43", "trainable": false}}, {"class_name": "Activation", "inbound_nodes": [[["batch_normalization_45", 0, 0, {}]]], "name": "activation_45", "config": {"activation": "relu", "name": "activation_45", "trainable": false}}, {"class_name": "Activation", "inbound_nodes": [[["batch_normalization_48", 0, 0, {}]]], "name": "activation_48", "config": {"activation": "relu", "name": "activation_48", "trainable": false}}, {"class_name": "Concatenate", "inbound_nodes": [[["activation_43", 0, 0, {}], ["activation_45", 0, 0, {}], ["activation_48", 0, 0, {}]]], "name": "block35_6_mixed", "config": {"axis": 3, "name": "block35_6_mixed", "trainable": false}}, {"class_name": "Conv2D", "inbound_nodes": [[["block35_6_mixed", 0, 0, {}]]], "name": "block35_6_conv", "config": {"bias_initializer": {"class_name": "Zeros", "config": {}}, "bias_regularizer": null, "activity_regularizer": null, "use_bias": true, "kernel_regularizer": null, "kernel_constraint": null, "kernel_size": [1, 1], "data_format": "channels_last", "filters": 320, "strides": [1, 1], "name": "block35_6_conv", "trainable": false, "padding": "same", "activation": "linear", "bias_constraint": null, "kernel_initializer": {"class_name": "VarianceScaling", "config": {"mode": "fan_avg", "distribution": "uniform", "seed": null, "scale": 1.0}}, "dilation_rate": [1, 1]}}, {"class_name": "Lambda", "inbound_nodes": [[["block35_5_ac", 0, 0, {}], ["block35_6_conv", 0, 0, {}]]], "name": "block35_6", "config": {"function": ["4wIAAAAAAAAAAgAAAAMAAABTAAAAcxQAAAB8AABkAQAZfAAAZAIAGXwBABQXUykDTukAAAAA6QEA\nAACpACkC2gZpbnB1dHPaBXNjYWxlcgMAAAByAwAAAPpQL3Vzci9sb2NhbC9saWIvcHl0aG9uMy41\nL2Rpc3QtcGFja2FnZXMva2VyYXNfYXBwbGljYXRpb25zL2luY2VwdGlvbl9yZXNuZXRfdjIucHna\nCDxsYW1iZGE+qAAAAPMAAAAA\n", null, null], "name": "block35_6", "output_shape_type": "raw", "trainable": false, "function_type": "lambda", "output_shape": [35, 35, 320], "arguments": {"scale": 0.17}}}, {"class_name": "Activation", "inbound_nodes": [[["block35_6", 0, 0, {}]]], "name": "block35_6_ac", "config": {"activation": "relu", "name": "block35_6_ac", "trainable": false}}, {"class_name": "Conv2D", "inbound_nodes": [[["block35_6_ac", 0, 0, {}]]], "name": "conv2d_52", "config": {"bias_initializer": {"class_name": "Zeros", "config": {}}, "bias_regularizer": null, "activity_regularizer": null, "use_bias": false, "kernel_regularizer": null, "kernel_constraint": null, "kernel_size": [1, 1], "data_format": "channels_last", "filters": 32, "strides": [1, 1], "name": "conv2d_52", "trainable": false, "padding": "same", "activation": "linear", "bias_constraint": null, "kernel_initializer": {"class_name": "VarianceScaling", "config": {"mode": "fan_avg", "distribution": "uniform", "seed": null, "scale": 1.0}}, "dilation_rate": [1, 1]}}, {"class_name": "BatchNormalization", "inbound_nodes": [[["conv2d_52", 0, 0, {}]]], "name": "batch_normalization_52", "config": {"gamma_initializer": {"class_name": "Ones", "config": {}}, "epsilon": 0.001, "scale": false, "beta_constraint": null, "name": "batch_normalization_52", "moving_mean_initializer": {"class_name": "Zeros", "config": {}}, "beta_regularizer": null, "center": true, "beta_initializer": {"class_name": "Zeros", "config": {}}, "moving_variance_initializer": {"class_name": "Ones", "config": {}}, "momentum": 0.99, "trainable": false, "gamma_constraint": null, "axis": 3, "gamma_regularizer": null}}, {"class_name": "Activation", "inbound_nodes": [[["batch_normalization_52", 0, 0, {}]]], "name": "activation_52", "config": {"activation": "relu", "name": "activation_52", "trainable": false}}, {"class_name": "Conv2D", "inbound_nodes": [[["block35_6_ac", 0, 0, {}]]], "name": "conv2d_50", "config": {"bias_initializer": {"class_name": "Zeros", "config": {}}, "bias_regularizer": null, "activity_regularizer": null, "use_bias": false, "kernel_regularizer": null, "kernel_constraint": null, "kernel_size": [1, 1], "data_format": "channels_last", "filters": 32, "strides": [1, 1], "name": "conv2d_50", "trainable": false, "padding": "same", "activation": "linear", "bias_constraint": null, "kernel_initializer": {"class_name": "VarianceScaling", "config": {"mode": "fan_avg", "distribution": "uniform", "seed": null, "scale": 1.0}}, "dilation_rate": [1, 1]}}, {"class_name": "Conv2D", "inbound_nodes": [[["activation_52", 0, 0, {}]]], "name": "conv2d_53", "config": {"bias_initializer": {"class_name": "Zeros", "config": {}}, "bias_regularizer": null, "activity_regularizer": null, "use_bias": false, "kernel_regularizer": null, "kernel_constraint": null, "kernel_size": [3, 3], "data_format": "channels_last", "filters": 48, "strides": [1, 1], "name": "conv2d_53", "trainable": false, "padding": "same", "activation": "linear", "bias_constraint": null, "kernel_initializer": {"class_name": "VarianceScaling", "config": {"mode": "fan_avg", "distribution": "uniform", "seed": null, "scale": 1.0}}, "dilation_rate": [1, 1]}}, {"class_name": "BatchNormalization", "inbound_nodes": [[["conv2d_50", 0, 0, {}]]], "name": "batch_normalization_50", "config": {"gamma_initializer": {"class_name": "Ones", "config": {}}, "epsilon": 0.001, "scale": false, "beta_constraint": null, "name": "batch_normalization_50", "moving_mean_initializer": {"class_name": "Zeros", "config": {}}, "beta_regularizer": null, "center": true, "beta_initializer": {"class_name": "Zeros", "config": {}}, "moving_variance_initializer": {"class_name": "Ones", "config": {}}, "momentum": 0.99, "trainable": false, "gamma_constraint": null, "axis": 3, "gamma_regularizer": null}}, {"class_name": "BatchNormalization", "inbound_nodes": [[["conv2d_53", 0, 0, {}]]], "name": "batch_normalization_53", "config": {"gamma_initializer": {"class_name": "Ones", "config": {}}, "epsilon": 0.001, "scale": false, "beta_constraint": null, "name": "batch_normalization_53", "moving_mean_initializer": {"class_name": "Zeros", "config": {}}, "beta_regularizer": null, "center": true, "beta_initializer": {"class_name": "Zeros", "config": {}}, "moving_variance_initializer": {"class_name": "Ones", "config": {}}, "momentum": 0.99, "trainable": false, "gamma_constraint": null, "axis": 3, "gamma_regularizer": null}}, {"class_name": "Activation", "inbound_nodes": [[["batch_normalization_50", 0, 0, {}]]], "name": "activation_50", "config": {"activation": "relu", "name": "activation_50", "trainable": false}}, {"class_name": "Activation", "inbound_nodes": [[["batch_normalization_53", 0, 0, {}]]], "name": "activation_53", "config": {"activation": "relu", "name": "activation_53", "trainable": false}}, {"class_name": "Conv2D", "inbound_nodes": [[["block35_6_ac", 0, 0, {}]]], "name": "conv2d_49", "config": {"bias_initializer": {"class_name": "Zeros", "config": {}}, "bias_regularizer": null, "activity_regularizer": null, "use_bias": false, "kernel_regularizer": null, "kernel_constraint": null, "kernel_size": [1, 1], "data_format": "channels_last", "filters": 32, "strides": [1, 1], "name": "conv2d_49", "trainable": false, "padding": "same", "activation": "linear", "bias_constraint": null, "kernel_initializer": {"class_name": "VarianceScaling", "config": {"mode": "fan_avg", "distribution": "uniform", "seed": null, "scale": 1.0}}, "dilation_rate": [1, 1]}}, {"class_name": "Conv2D", "inbound_nodes": [[["activation_50", 0, 0, {}]]], "name": "conv2d_51", "config": {"bias_initializer": {"class_name": "Zeros", "config": {}}, "bias_regularizer": null, "activity_regularizer": null, "use_bias": false, "kernel_regularizer": null, "kernel_constraint": null, "kernel_size": [3, 3], "data_format": "channels_last", "filters": 32, "strides": [1, 1], "name": "conv2d_51", "trainable": false, "padding": "same", "activation": "linear", "bias_constraint": null, "kernel_initializer": {"class_name": "VarianceScaling", "config": {"mode": "fan_avg", "distribution": "uniform", "seed": null, "scale": 1.0}}, "dilation_rate": [1, 1]}}, {"class_name": "Conv2D", "inbound_nodes": [[["activation_53", 0, 0, {}]]], "name": "conv2d_54", "config": {"bias_initializer": {"class_name": "Zeros", "config": {}}, "bias_regularizer": null, "activity_regularizer": null, "use_bias": false, "kernel_regularizer": null, "kernel_constraint": null, "kernel_size": [3, 3], "data_format": "channels_last", "filters": 64, "strides": [1, 1], "name": "conv2d_54", "trainable": false, "padding": "same", "activation": "linear", "bias_constraint": null, "kernel_initializer": {"class_name": "VarianceScaling", "config": {"mode": "fan_avg", "distribution": "uniform", "seed": null, "scale": 1.0}}, "dilation_rate": [1, 1]}}, {"class_name": "BatchNormalization", "inbound_nodes": [[["conv2d_49", 0, 0, {}]]], "name": "batch_normalization_49", "config": {"gamma_initializer": {"class_name": "Ones", "config": {}}, "epsilon": 0.001, "scale": false, "beta_constraint": null, "name": "batch_normalization_49", "moving_mean_initializer": {"class_name": "Zeros", "config": {}}, "beta_regularizer": null, "center": true, "beta_initializer": {"class_name": "Zeros", "config": {}}, "moving_variance_initializer": {"class_name": "Ones", "config": {}}, "momentum": 0.99, "trainable": false, "gamma_constraint": null, "axis": 3, "gamma_regularizer": null}}, {"class_name": "BatchNormalization", "inbound_nodes": [[["conv2d_51", 0, 0, {}]]], "name": "batch_normalization_51", "config": {"gamma_initializer": {"class_name": "Ones", "config": {}}, "epsilon": 0.001, "scale": false, "beta_constraint": null, "name": "batch_normalization_51", "moving_mean_initializer": {"class_name": "Zeros", "config": {}}, "beta_regularizer": null, "center": true, "beta_initializer": {"class_name": "Zeros", "config": {}}, "moving_variance_initializer": {"class_name": "Ones", "config": {}}, "momentum": 0.99, "trainable": false, "gamma_constraint": null, "axis": 3, "gamma_regularizer": null}}, {"class_name": "BatchNormalization", "inbound_nodes": [[["conv2d_54", 0, 0, {}]]], "name": "batch_normalization_54", "config": {"gamma_initializer": {"class_name": "Ones", "config": {}}, "epsilon": 0.001, "scale": false, "beta_constraint": null, "name": "batch_normalization_54", "moving_mean_initializer": {"class_name": "Zeros", "config": {}}, "beta_regularizer": null, "center": true, "beta_initializer": {"class_name": "Zeros", "config": {}}, "moving_variance_initializer": {"class_name": "Ones", "config": {}}, "momentum": 0.99, "trainable": false, "gamma_constraint": null, "axis": 3, "gamma_regularizer": null}}, {"class_name": "Activation", "inbound_nodes": [[["batch_normalization_49", 0, 0, {}]]], "name": "activation_49", "config": {"activation": "relu", "name": "activation_49", "trainable": false}}, {"class_name": "Activation", "inbound_nodes": [[["batch_normalization_51", 0, 0, {}]]], "name": "activation_51", "config": {"activation": "relu", "name": "activation_51", "trainable": false}}, {"class_name": "Activation", "inbound_nodes": [[["batch_normalization_54", 0, 0, {}]]], "name": "activation_54", "config": {"activation": "relu", "name": "activation_54", "trainable": false}}, {"class_name": "Concatenate", "inbound_nodes": [[["activation_49", 0, 0, {}], ["activation_51", 0, 0, {}], ["activation_54", 0, 0, {}]]], "name": "block35_7_mixed", "config": {"axis": 3, "name": "block35_7_mixed", "trainable": false}}, {"class_name": "Conv2D", "inbound_nodes": [[["block35_7_mixed", 0, 0, {}]]], "name": "block35_7_conv", "config": {"bias_initializer": {"class_name": "Zeros", "config": {}}, "bias_regularizer": null, "activity_regularizer": null, "use_bias": true, "kernel_regularizer": null, "kernel_constraint": null, "kernel_size": [1, 1], "data_format": "channels_last", "filters": 320, "strides": [1, 1], "name": "block35_7_conv", "trainable": false, "padding": "same", "activation": "linear", "bias_constraint": null, "kernel_initializer": {"class_name": "VarianceScaling", "config": {"mode": "fan_avg", "distribution": "uniform", "seed": null, "scale": 1.0}}, "dilation_rate": [1, 1]}}, {"class_name": "Lambda", "inbound_nodes": [[["block35_6_ac", 0, 0, {}], ["block35_7_conv", 0, 0, {}]]], "name": "block35_7", "config": {"function": ["4wIAAAAAAAAAAgAAAAMAAABTAAAAcxQAAAB8AABkAQAZfAAAZAIAGXwBABQXUykDTukAAAAA6QEA\nAACpACkC2gZpbnB1dHPaBXNjYWxlcgMAAAByAwAAAPpQL3Vzci9sb2NhbC9saWIvcHl0aG9uMy41\nL2Rpc3QtcGFja2FnZXMva2VyYXNfYXBwbGljYXRpb25zL2luY2VwdGlvbl9yZXNuZXRfdjIucHna\nCDxsYW1iZGE+qAAAAPMAAAAA\n", null, null], "name": "block35_7", "output_shape_type": "raw", "trainable": false, "function_type": "lambda", "output_shape": [35, 35, 320], "arguments": {"scale": 0.17}}}, {"class_name": "Activation", "inbound_nodes": [[["block35_7", 0, 0, {}]]], "name": "block35_7_ac", "config": {"activation": "relu", "name": "block35_7_ac", "trainable": false}}, {"class_name": "Conv2D", "inbound_nodes": [[["block35_7_ac", 0, 0, {}]]], "name": "conv2d_58", "config": {"bias_initializer": {"class_name": "Zeros", "config": {}}, "bias_regularizer": null, "activity_regularizer": null, "use_bias": false, "kernel_regularizer": null, "kernel_constraint": null, "kernel_size": [1, 1], "data_format": "channels_last", "filters": 32, "strides": [1, 1], "name": "conv2d_58", "trainable": false, "padding": "same", "activation": "linear", "bias_constraint": null, "kernel_initializer": {"class_name": "VarianceScaling", "config": {"mode": "fan_avg", "distribution": "uniform", "seed": null, "scale": 1.0}}, "dilation_rate": [1, 1]}}, {"class_name": "BatchNormalization", "inbound_nodes": [[["conv2d_58", 0, 0, {}]]], "name": "batch_normalization_58", "config": {"gamma_initializer": {"class_name": "Ones", "config": {}}, "epsilon": 0.001, "scale": false, "beta_constraint": null, "name": "batch_normalization_58", "moving_mean_initializer": {"class_name": "Zeros", "config": {}}, "beta_regularizer": null, "center": true, "beta_initializer": {"class_name": "Zeros", "config": {}}, "moving_variance_initializer": {"class_name": "Ones", "config": {}}, "momentum": 0.99, "trainable": false, "gamma_constraint": null, "axis": 3, "gamma_regularizer": null}}, {"class_name": "Activation", "inbound_nodes": [[["batch_normalization_58", 0, 0, {}]]], "name": "activation_58", "config": {"activation": "relu", "name": "activation_58", "trainable": false}}, {"class_name": "Conv2D", "inbound_nodes": [[["block35_7_ac", 0, 0, {}]]], "name": "conv2d_56", "config": {"bias_initializer": {"class_name": "Zeros", "config": {}}, "bias_regularizer": null, "activity_regularizer": null, "use_bias": false, "kernel_regularizer": null, "kernel_constraint": null, "kernel_size": [1, 1], "data_format": "channels_last", "filters": 32, "strides": [1, 1], "name": "conv2d_56", "trainable": false, "padding": "same", "activation": "linear", "bias_constraint": null, "kernel_initializer": {"class_name": "VarianceScaling", "config": {"mode": "fan_avg", "distribution": "uniform", "seed": null, "scale": 1.0}}, "dilation_rate": [1, 1]}}, {"class_name": "Conv2D", "inbound_nodes": [[["activation_58", 0, 0, {}]]], "name": "conv2d_59", "config": {"bias_initializer": {"class_name": "Zeros", "config": {}}, "bias_regularizer": null, "activity_regularizer": null, "use_bias": false, "kernel_regularizer": null, "kernel_constraint": null, "kernel_size": [3, 3], "data_format": "channels_last", "filters": 48, "strides": [1, 1], "name": "conv2d_59", "trainable": false, "padding": "same", "activation": "linear", "bias_constraint": null, "kernel_initializer": {"class_name": "VarianceScaling", "config": {"mode": "fan_avg", "distribution": "uniform", "seed": null, "scale": 1.0}}, "dilation_rate": [1, 1]}}, {"class_name": "BatchNormalization", "inbound_nodes": [[["conv2d_56", 0, 0, {}]]], "name": "batch_normalization_56", "config": {"gamma_initializer": {"class_name": "Ones", "config": {}}, "epsilon": 0.001, "scale": false, "beta_constraint": null, "name": "batch_normalization_56", "moving_mean_initializer": {"class_name": "Zeros", "config": {}}, "beta_regularizer": null, "center": true, "beta_initializer": {"class_name": "Zeros", "config": {}}, "moving_variance_initializer": {"class_name": "Ones", "config": {}}, "momentum": 0.99, "trainable": false, "gamma_constraint": null, "axis": 3, "gamma_regularizer": null}}, {"class_name": "BatchNormalization", "inbound_nodes": [[["conv2d_59", 0, 0, {}]]], "name": "batch_normalization_59", "config": {"gamma_initializer": {"class_name": "Ones", "config": {}}, "epsilon": 0.001, "scale": false, "beta_constraint": null, "name": "batch_normalization_59", "moving_mean_initializer": {"class_name": "Zeros", "config": {}}, "beta_regularizer": null, "center": true, "beta_initializer": {"class_name": "Zeros", "config": {}}, "moving_variance_initializer": {"class_name": "Ones", "config": {}}, "momentum": 0.99, "trainable": false, "gamma_constraint": null, "axis": 3, "gamma_regularizer": null}}, {"class_name": "Activation", "inbound_nodes": [[["batch_normalization_56", 0, 0, {}]]], "name": "activation_56", "config": {"activation": "relu", "name": "activation_56", "trainable": false}}, {"class_name": "Activation", "inbound_nodes": [[["batch_normalization_59", 0, 0, {}]]], "name": "activation_59", "config": {"activation": "relu", "name": "activation_59", "trainable": false}}, {"class_name": "Conv2D", "inbound_nodes": [[["block35_7_ac", 0, 0, {}]]], "name": "conv2d_55", "config": {"bias_initializer": {"class_name": "Zeros", "config": {}}, "bias_regularizer": null, "activity_regularizer": null, "use_bias": false, "kernel_regularizer": null, "kernel_constraint": null, "kernel_size": [1, 1], "data_format": "channels_last", "filters": 32, "strides": [1, 1], "name": "conv2d_55", "trainable": false, "padding": "same", "activation": "linear", "bias_constraint": null, "kernel_initializer": {"class_name": "VarianceScaling", "config": {"mode": "fan_avg", "distribution": "uniform", "seed": null, "scale": 1.0}}, "dilation_rate": [1, 1]}}, {"class_name": "Conv2D", "inbound_nodes": [[["activation_56", 0, 0, {}]]], "name": "conv2d_57", "config": {"bias_initializer": {"class_name": "Zeros", "config": {}}, "bias_regularizer": null, "activity_regularizer": null, "use_bias": false, "kernel_regularizer": null, "kernel_constraint": null, "kernel_size": [3, 3], "data_format": "channels_last", "filters": 32, "strides": [1, 1], "name": "conv2d_57", "trainable": false, "padding": "same", "activation": "linear", "bias_constraint": null, "kernel_initializer": {"class_name": "VarianceScaling", "config": {"mode": "fan_avg", "distribution": "uniform", "seed": null, "scale": 1.0}}, "dilation_rate": [1, 1]}}, {"class_name": "Conv2D", "inbound_nodes": [[["activation_59", 0, 0, {}]]], "name": "conv2d_60", "config": {"bias_initializer": {"class_name": "Zeros", "config": {}}, "bias_regularizer": null, "activity_regularizer": null, "use_bias": false, "kernel_regularizer": null, "kernel_constraint": null, "kernel_size": [3, 3], "data_format": "channels_last", "filters": 64, "strides": [1, 1], "name": "conv2d_60", "trainable": false, "padding": "same", "activation": "linear", "bias_constraint": null, "kernel_initializer": {"class_name": "VarianceScaling", "config": {"mode": "fan_avg", "distribution": "uniform", "seed": null, "scale": 1.0}}, "dilation_rate": [1, 1]}}, {"class_name": "BatchNormalization", "inbound_nodes": [[["conv2d_55", 0, 0, {}]]], "name": "batch_normalization_55", "config": {"gamma_initializer": {"class_name": "Ones", "config": {}}, "epsilon": 0.001, "scale": false, "beta_constraint": null, "name": "batch_normalization_55", "moving_mean_initializer": {"class_name": "Zeros", "config": {}}, "beta_regularizer": null, "center": true, "beta_initializer": {"class_name": "Zeros", "config": {}}, "moving_variance_initializer": {"class_name": "Ones", "config": {}}, "momentum": 0.99, "trainable": false, "gamma_constraint": null, "axis": 3, "gamma_regularizer": null}}, {"class_name": "BatchNormalization", "inbound_nodes": [[["conv2d_57", 0, 0, {}]]], "name": "batch_normalization_57", "config": {"gamma_initializer": {"class_name": "Ones", "config": {}}, "epsilon": 0.001, "scale": false, "beta_constraint": null, "name": "batch_normalization_57", "moving_mean_initializer": {"class_name": "Zeros", "config": {}}, "beta_regularizer": null, "center": true, "beta_initializer": {"class_name": "Zeros", "config": {}}, "moving_variance_initializer": {"class_name": "Ones", "config": {}}, "momentum": 0.99, "trainable": false, "gamma_constraint": null, "axis": 3, "gamma_regularizer": null}}, {"class_name": "BatchNormalization", "inbound_nodes": [[["conv2d_60", 0, 0, {}]]], "name": "batch_normalization_60", "config": {"gamma_initializer": {"class_name": "Ones", "config": {}}, "epsilon": 0.001, "scale": false, "beta_constraint": null, "name": "batch_normalization_60", "moving_mean_initializer": {"class_name": "Zeros", "config": {}}, "beta_regularizer": null, "center": true, "beta_initializer": {"class_name": "Zeros", "config": {}}, "moving_variance_initializer": {"class_name": "Ones", "config": {}}, "momentum": 0.99, "trainable": false, "gamma_constraint": null, "axis": 3, "gamma_regularizer": null}}, {"class_name": "Activation", "inbound_nodes": [[["batch_normalization_55", 0, 0, {}]]], "name": "activation_55", "config": {"activation": "relu", "name": "activation_55", "trainable": false}}, {"class_name": "Activation", "inbound_nodes": [[["batch_normalization_57", 0, 0, {}]]], "name": "activation_57", "config": {"activation": "relu", "name": "activation_57", "trainable": false}}, {"class_name": "Activation", "inbound_nodes": [[["batch_normalization_60", 0, 0, {}]]], "name": "activation_60", "config": {"activation": "relu", "name": "activation_60", "trainable": false}}, {"class_name": "Concatenate", "inbound_nodes": [[["activation_55", 0, 0, {}], ["activation_57", 0, 0, {}], ["activation_60", 0, 0, {}]]], "name": "block35_8_mixed", "config": {"axis": 3, "name": "block35_8_mixed", "trainable": false}}, {"class_name": "Conv2D", "inbound_nodes": [[["block35_8_mixed", 0, 0, {}]]], "name": "block35_8_conv", "config": {"bias_initializer": {"class_name": "Zeros", "config": {}}, "bias_regularizer": null, "activity_regularizer": null, "use_bias": true, "kernel_regularizer": null, "kernel_constraint": null, "kernel_size": [1, 1], "data_format": "channels_last", "filters": 320, "strides": [1, 1], "name": "block35_8_conv", "trainable": false, "padding": "same", "activation": "linear", "bias_constraint": null, "kernel_initializer": {"class_name": "VarianceScaling", "config": {"mode": "fan_avg", "distribution": "uniform", "seed": null, "scale": 1.0}}, "dilation_rate": [1, 1]}}, {"class_name": "Lambda", "inbound_nodes": [[["block35_7_ac", 0, 0, {}], ["block35_8_conv", 0, 0, {}]]], "name": "block35_8", "config": {"function": ["4wIAAAAAAAAAAgAAAAMAAABTAAAAcxQAAAB8AABkAQAZfAAAZAIAGXwBABQXUykDTukAAAAA6QEA\nAACpACkC2gZpbnB1dHPaBXNjYWxlcgMAAAByAwAAAPpQL3Vzci9sb2NhbC9saWIvcHl0aG9uMy41\nL2Rpc3QtcGFja2FnZXMva2VyYXNfYXBwbGljYXRpb25zL2luY2VwdGlvbl9yZXNuZXRfdjIucHna\nCDxsYW1iZGE+qAAAAPMAAAAA\n", null, null], "name": "block35_8", "output_shape_type": "raw", "trainable": false, "function_type": "lambda", "output_shape": [35, 35, 320], "arguments": {"scale": 0.17}}}, {"class_name": "Activation", "inbound_nodes": [[["block35_8", 0, 0, {}]]], "name": "block35_8_ac", "config": {"activation": "relu", "name": "block35_8_ac", "trainable": false}}, {"class_name": "Conv2D", "inbound_nodes": [[["block35_8_ac", 0, 0, {}]]], "name": "conv2d_64", "config": {"bias_initializer": {"class_name": "Zeros", "config": {}}, "bias_regularizer": null, "activity_regularizer": null, "use_bias": false, "kernel_regularizer": null, "kernel_constraint": null, "kernel_size": [1, 1], "data_format": "channels_last", "filters": 32, "strides": [1, 1], "name": "conv2d_64", "trainable": false, "padding": "same", "activation": "linear", "bias_constraint": null, "kernel_initializer": {"class_name": "VarianceScaling", "config": {"mode": "fan_avg", "distribution": "uniform", "seed": null, "scale": 1.0}}, "dilation_rate": [1, 1]}}, {"class_name": "BatchNormalization", "inbound_nodes": [[["conv2d_64", 0, 0, {}]]], "name": "batch_normalization_64", "config": {"gamma_initializer": {"class_name": "Ones", "config": {}}, "epsilon": 0.001, "scale": false, "beta_constraint": null, "name": "batch_normalization_64", "moving_mean_initializer": {"class_name": "Zeros", "config": {}}, "beta_regularizer": null, "center": true, "beta_initializer": {"class_name": "Zeros", "config": {}}, "moving_variance_initializer": {"class_name": "Ones", "config": {}}, "momentum": 0.99, "trainable": false, "gamma_constraint": null, "axis": 3, "gamma_regularizer": null}}, {"class_name": "Activation", "inbound_nodes": [[["batch_normalization_64", 0, 0, {}]]], "name": "activation_64", "config": {"activation": "relu", "name": "activation_64", "trainable": false}}, {"class_name": "Conv2D", "inbound_nodes": [[["block35_8_ac", 0, 0, {}]]], "name": "conv2d_62", "config": {"bias_initializer": {"class_name": "Zeros", "config": {}}, "bias_regularizer": null, "activity_regularizer": null, "use_bias": false, "kernel_regularizer": null, "kernel_constraint": null, "kernel_size": [1, 1], "data_format": "channels_last", "filters": 32, "strides": [1, 1], "name": "conv2d_62", "trainable": false, "padding": "same", "activation": "linear", "bias_constraint": null, "kernel_initializer": {"class_name": "VarianceScaling", "config": {"mode": "fan_avg", "distribution": "uniform", "seed": null, "scale": 1.0}}, "dilation_rate": [1, 1]}}, {"class_name": "Conv2D", "inbound_nodes": [[["activation_64", 0, 0, {}]]], "name": "conv2d_65", "config": {"bias_initializer": {"class_name": "Zeros", "config": {}}, "bias_regularizer": null, "activity_regularizer": null, "use_bias": false, "kernel_regularizer": null, "kernel_constraint": null, "kernel_size": [3, 3], "data_format": "channels_last", "filters": 48, "strides": [1, 1], "name": "conv2d_65", "trainable": false, "padding": "same", "activation": "linear", "bias_constraint": null, "kernel_initializer": {"class_name": "VarianceScaling", "config": {"mode": "fan_avg", "distribution": "uniform", "seed": null, "scale": 1.0}}, "dilation_rate": [1, 1]}}, {"class_name": "BatchNormalization", "inbound_nodes": [[["conv2d_62", 0, 0, {}]]], "name": "batch_normalization_62", "config": {"gamma_initializer": {"class_name": "Ones", "config": {}}, "epsilon": 0.001, "scale": false, "beta_constraint": null, "name": "batch_normalization_62", "moving_mean_initializer": {"class_name": "Zeros", "config": {}}, "beta_regularizer": null, "center": true, "beta_initializer": {"class_name": "Zeros", "config": {}}, "moving_variance_initializer": {"class_name": "Ones", "config": {}}, "momentum": 0.99, "trainable": false, "gamma_constraint": null, "axis": 3, "gamma_regularizer": null}}, {"class_name": "BatchNormalization", "inbound_nodes": [[["conv2d_65", 0, 0, {}]]], "name": "batch_normalization_65", "config": {"gamma_initializer": {"class_name": "Ones", "config": {}}, "epsilon": 0.001, "scale": false, "beta_constraint": null, "name": "batch_normalization_65", "moving_mean_initializer": {"class_name": "Zeros", "config": {}}, "beta_regularizer": null, "center": true, "beta_initializer": {"class_name": "Zeros", "config": {}}, "moving_variance_initializer": {"class_name": "Ones", "config": {}}, "momentum": 0.99, "trainable": false, "gamma_constraint": null, "axis": 3, "gamma_regularizer": null}}, {"class_name": "Activation", "inbound_nodes": [[["batch_normalization_62", 0, 0, {}]]], "name": "activation_62", "config": {"activation": "relu", "name": "activation_62", "trainable": false}}, {"class_name": "Activation", "inbound_nodes": [[["batch_normalization_65", 0, 0, {}]]], "name": "activation_65", "config": {"activation": "relu", "name": "activation_65", "trainable": false}}, {"class_name": "Conv2D", "inbound_nodes": [[["block35_8_ac", 0, 0, {}]]], "name": "conv2d_61", "config": {"bias_initializer": {"class_name": "Zeros", "config": {}}, "bias_regularizer": null, "activity_regularizer": null, "use_bias": false, "kernel_regularizer": null, "kernel_constraint": null, "kernel_size": [1, 1], "data_format": "channels_last", "filters": 32, "strides": [1, 1], "name": "conv2d_61", "trainable": false, "padding": "same", "activation": "linear", "bias_constraint": null, "kernel_initializer": {"class_name": "VarianceScaling", "config": {"mode": "fan_avg", "distribution": "uniform", "seed": null, "scale": 1.0}}, "dilation_rate": [1, 1]}}, {"class_name": "Conv2D", "inbound_nodes": [[["activation_62", 0, 0, {}]]], "name": "conv2d_63", "config": {"bias_initializer": {"class_name": "Zeros", "config": {}}, "bias_regularizer": null, "activity_regularizer": null, "use_bias": false, "kernel_regularizer": null, "kernel_constraint": null, "kernel_size": [3, 3], "data_format": "channels_last", "filters": 32, "strides": [1, 1], "name": "conv2d_63", "trainable": false, "padding": "same", "activation": "linear", "bias_constraint": null, "kernel_initializer": {"class_name": "VarianceScaling", "config": {"mode": "fan_avg", "distribution": "uniform", "seed": null, "scale": 1.0}}, "dilation_rate": [1, 1]}}, {"class_name": "Conv2D", "inbound_nodes": [[["activation_65", 0, 0, {}]]], "name": "conv2d_66", "config": {"bias_initializer": {"class_name": "Zeros", "config": {}}, "bias_regularizer": null, "activity_regularizer": null, "use_bias": false, "kernel_regularizer": null, "kernel_constraint": null, "kernel_size": [3, 3], "data_format": "channels_last", "filters": 64, "strides": [1, 1], "name": "conv2d_66", "trainable": false, "padding": "same", "activation": "linear", "bias_constraint": null, "kernel_initializer": {"class_name": "VarianceScaling", "config": {"mode": "fan_avg", "distribution": "uniform", "seed": null, "scale": 1.0}}, "dilation_rate": [1, 1]}}, {"class_name": "BatchNormalization", "inbound_nodes": [[["conv2d_61", 0, 0, {}]]], "name": "batch_normalization_61", "config": {"gamma_initializer": {"class_name": "Ones", "config": {}}, "epsilon": 0.001, "scale": false, "beta_constraint": null, "name": "batch_normalization_61", "moving_mean_initializer": {"class_name": "Zeros", "config": {}}, "beta_regularizer": null, "center": true, "beta_initializer": {"class_name": "Zeros", "config": {}}, "moving_variance_initializer": {"class_name": "Ones", "config": {}}, "momentum": 0.99, "trainable": false, "gamma_constraint": null, "axis": 3, "gamma_regularizer": null}}, {"class_name": "BatchNormalization", "inbound_nodes": [[["conv2d_63", 0, 0, {}]]], "name": "batch_normalization_63", "config": {"gamma_initializer": {"class_name": "Ones", "config": {}}, "epsilon": 0.001, "scale": false, "beta_constraint": null, "name": "batch_normalization_63", "moving_mean_initializer": {"class_name": "Zeros", "config": {}}, "beta_regularizer": null, "center": true, "beta_initializer": {"class_name": "Zeros", "config": {}}, "moving_variance_initializer": {"class_name": "Ones", "config": {}}, "momentum": 0.99, "trainable": false, "gamma_constraint": null, "axis": 3, "gamma_regularizer": null}}, {"class_name": "BatchNormalization", "inbound_nodes": [[["conv2d_66", 0, 0, {}]]], "name": "batch_normalization_66", "config": {"gamma_initializer": {"class_name": "Ones", "config": {}}, "epsilon": 0.001, "scale": false, "beta_constraint": null, "name": "batch_normalization_66", "moving_mean_initializer": {"class_name": "Zeros", "config": {}}, "beta_regularizer": null, "center": true, "beta_initializer": {"class_name": "Zeros", "config": {}}, "moving_variance_initializer": {"class_name": "Ones", "config": {}}, "momentum": 0.99, "trainable": false, "gamma_constraint": null, "axis": 3, "gamma_regularizer": null}}, {"class_name": "Activation", "inbound_nodes": [[["batch_normalization_61", 0, 0, {}]]], "name": "activation_61", "config": {"activation": "relu", "name": "activation_61", "trainable": false}}, {"class_name": "Activation", "inbound_nodes": [[["batch_normalization_63", 0, 0, {}]]], "name": "activation_63", "config": {"activation": "relu", "name": "activation_63", "trainable": false}}, {"class_name": "Activation", "inbound_nodes": [[["batch_normalization_66", 0, 0, {}]]], "name": "activation_66", "config": {"activation": "relu", "name": "activation_66", "trainable": false}}, {"class_name": "Concatenate", "inbound_nodes": [[["activation_61", 0, 0, {}], ["activation_63", 0, 0, {}], ["activation_66", 0, 0, {}]]], "name": "block35_9_mixed", "config": {"axis": 3, "name": "block35_9_mixed", "trainable": false}}, {"class_name": "Conv2D", "inbound_nodes": [[["block35_9_mixed", 0, 0, {}]]], "name": "block35_9_conv", "config": {"bias_initializer": {"class_name": "Zeros", "config": {}}, "bias_regularizer": null, "activity_regularizer": null, "use_bias": true, "kernel_regularizer": null, "kernel_constraint": null, "kernel_size": [1, 1], "data_format": "channels_last", "filters": 320, "strides": [1, 1], "name": "block35_9_conv", "trainable": false, "padding": "same", "activation": "linear", "bias_constraint": null, "kernel_initializer": {"class_name": "VarianceScaling", "config": {"mode": "fan_avg", "distribution": "uniform", "seed": null, "scale": 1.0}}, "dilation_rate": [1, 1]}}, {"class_name": "Lambda", "inbound_nodes": [[["block35_8_ac", 0, 0, {}], ["block35_9_conv", 0, 0, {}]]], "name": "block35_9", "config": {"function": ["4wIAAAAAAAAAAgAAAAMAAABTAAAAcxQAAAB8AABkAQAZfAAAZAIAGXwBABQXUykDTukAAAAA6QEA\nAACpACkC2gZpbnB1dHPaBXNjYWxlcgMAAAByAwAAAPpQL3Vzci9sb2NhbC9saWIvcHl0aG9uMy41\nL2Rpc3QtcGFja2FnZXMva2VyYXNfYXBwbGljYXRpb25zL2luY2VwdGlvbl9yZXNuZXRfdjIucHna\nCDxsYW1iZGE+qAAAAPMAAAAA\n", null, null], "name": "block35_9", "output_shape_type": "raw", "trainable": false, "function_type": "lambda", "output_shape": [35, 35, 320], "arguments": {"scale": 0.17}}}, {"class_name": "Activation", "inbound_nodes": [[["block35_9", 0, 0, {}]]], "name": "block35_9_ac", "config": {"activation": "relu", "name": "block35_9_ac", "trainable": false}}, {"class_name": "Conv2D", "inbound_nodes": [[["block35_9_ac", 0, 0, {}]]], "name": "conv2d_70", "config": {"bias_initializer": {"class_name": "Zeros", "config": {}}, "bias_regularizer": null, "activity_regularizer": null, "use_bias": false, "kernel_regularizer": null, "kernel_constraint": null, "kernel_size": [1, 1], "data_format": "channels_last", "filters": 32, "strides": [1, 1], "name": "conv2d_70", "trainable": false, "padding": "same", "activation": "linear", "bias_constraint": null, "kernel_initializer": {"class_name": "VarianceScaling", "config": {"mode": "fan_avg", "distribution": "uniform", "seed": null, "scale": 1.0}}, "dilation_rate": [1, 1]}}, {"class_name": "BatchNormalization", "inbound_nodes": [[["conv2d_70", 0, 0, {}]]], "name": "batch_normalization_70", "config": {"gamma_initializer": {"class_name": "Ones", "config": {}}, "epsilon": 0.001, "scale": false, "beta_constraint": null, "name": "batch_normalization_70", "moving_mean_initializer": {"class_name": "Zeros", "config": {}}, "beta_regularizer": null, "center": true, "beta_initializer": {"class_name": "Zeros", "config": {}}, "moving_variance_initializer": {"class_name": "Ones", "config": {}}, "momentum": 0.99, "trainable": false, "gamma_constraint": null, "axis": 3, "gamma_regularizer": null}}, {"class_name": "Activation", "inbound_nodes": [[["batch_normalization_70", 0, 0, {}]]], "name": "activation_70", "config": {"activation": "relu", "name": "activation_70", "trainable": false}}, {"class_name": "Conv2D", "inbound_nodes": [[["block35_9_ac", 0, 0, {}]]], "name": "conv2d_68", "config": {"bias_initializer": {"class_name": "Zeros", "config": {}}, "bias_regularizer": null, "activity_regularizer": null, "use_bias": false, "kernel_regularizer": null, "kernel_constraint": null, "kernel_size": [1, 1], "data_format": "channels_last", "filters": 32, "strides": [1, 1], "name": "conv2d_68", "trainable": false, "padding": "same", "activation": "linear", "bias_constraint": null, "kernel_initializer": {"class_name": "VarianceScaling", "config": {"mode": "fan_avg", "distribution": "uniform", "seed": null, "scale": 1.0}}, "dilation_rate": [1, 1]}}, {"class_name": "Conv2D", "inbound_nodes": [[["activation_70", 0, 0, {}]]], "name": "conv2d_71", "config": {"bias_initializer": {"class_name": "Zeros", "config": {}}, "bias_regularizer": null, "activity_regularizer": null, "use_bias": false, "kernel_regularizer": null, "kernel_constraint": null, "kernel_size": [3, 3], "data_format": "channels_last", "filters": 48, "strides": [1, 1], "name": "conv2d_71", "trainable": false, "padding": "same", "activation": "linear", "bias_constraint": null, "kernel_initializer": {"class_name": "VarianceScaling", "config": {"mode": "fan_avg", "distribution": "uniform", "seed": null, "scale": 1.0}}, "dilation_rate": [1, 1]}}, {"class_name": "BatchNormalization", "inbound_nodes": [[["conv2d_68", 0, 0, {}]]], "name": "batch_normalization_68", "config": {"gamma_initializer": {"class_name": "Ones", "config": {}}, "epsilon": 0.001, "scale": false, "beta_constraint": null, "name": "batch_normalization_68", "moving_mean_initializer": {"class_name": "Zeros", "config": {}}, "beta_regularizer": null, "center": true, "beta_initializer": {"class_name": "Zeros", "config": {}}, "moving_variance_initializer": {"class_name": "Ones", "config": {}}, "momentum": 0.99, "trainable": false, "gamma_constraint": null, "axis": 3, "gamma_regularizer": null}}, {"class_name": "BatchNormalization", "inbound_nodes": [[["conv2d_71", 0, 0, {}]]], "name": "batch_normalization_71", "config": {"gamma_initializer": {"class_name": "Ones", "config": {}}, "epsilon": 0.001, "scale": false, "beta_constraint": null, "name": "batch_normalization_71", "moving_mean_initializer": {"class_name": "Zeros", "config": {}}, "beta_regularizer": null, "center": true, "beta_initializer": {"class_name": "Zeros", "config": {}}, "moving_variance_initializer": {"class_name": "Ones", "config": {}}, "momentum": 0.99, "trainable": false, "gamma_constraint": null, "axis": 3, "gamma_regularizer": null}}, {"class_name": "Activation", "inbound_nodes": [[["batch_normalization_68", 0, 0, {}]]], "name": "activation_68", "config": {"activation": "relu", "name": "activation_68", "trainable": false}}, {"class_name": "Activation", "inbound_nodes": [[["batch_normalization_71", 0, 0, {}]]], "name": "activation_71", "config": {"activation": "relu", "name": "activation_71", "trainable": false}}, {"class_name": "Conv2D", "inbound_nodes": [[["block35_9_ac", 0, 0, {}]]], "name": "conv2d_67", "config": {"bias_initializer": {"class_name": "Zeros", "config": {}}, "bias_regularizer": null, "activity_regularizer": null, "use_bias": false, "kernel_regularizer": null, "kernel_constraint": null, "kernel_size": [1, 1], "data_format": "channels_last", "filters": 32, "strides": [1, 1], "name": "conv2d_67", "trainable": false, "padding": "same", "activation": "linear", "bias_constraint": null, "kernel_initializer": {"class_name": "VarianceScaling", "config": {"mode": "fan_avg", "distribution": "uniform", "seed": null, "scale": 1.0}}, "dilation_rate": [1, 1]}}, {"class_name": "Conv2D", "inbound_nodes": [[["activation_68", 0, 0, {}]]], "name": "conv2d_69", "config": {"bias_initializer": {"class_name": "Zeros", "config": {}}, "bias_regularizer": null, "activity_regularizer": null, "use_bias": false, "kernel_regularizer": null, "kernel_constraint": null, "kernel_size": [3, 3], "data_format": "channels_last", "filters": 32, "strides": [1, 1], "name": "conv2d_69", "trainable": false, "padding": "same", "activation": "linear", "bias_constraint": null, "kernel_initializer": {"class_name": "VarianceScaling", "config": {"mode": "fan_avg", "distribution": "uniform", "seed": null, "scale": 1.0}}, "dilation_rate": [1, 1]}}, {"class_name": "Conv2D", "inbound_nodes": [[["activation_71", 0, 0, {}]]], "name": "conv2d_72", "config": {"bias_initializer": {"class_name": "Zeros", "config": {}}, "bias_regularizer": null, "activity_regularizer": null, "use_bias": false, "kernel_regularizer": null, "kernel_constraint": null, "kernel_size": [3, 3], "data_format": "channels_last", "filters": 64, "strides": [1, 1], "name": "conv2d_72", "trainable": false, "padding": "same", "activation": "linear", "bias_constraint": null, "kernel_initializer": {"class_name": "VarianceScaling", "config": {"mode": "fan_avg", "distribution": "uniform", "seed": null, "scale": 1.0}}, "dilation_rate": [1, 1]}}, {"class_name": "BatchNormalization", "inbound_nodes": [[["conv2d_67", 0, 0, {}]]], "name": "batch_normalization_67", "config": {"gamma_initializer": {"class_name": "Ones", "config": {}}, "epsilon": 0.001, "scale": false, "beta_constraint": null, "name": "batch_normalization_67", "moving_mean_initializer": {"class_name": "Zeros", "config": {}}, "beta_regularizer": null, "center": true, "beta_initializer": {"class_name": "Zeros", "config": {}}, "moving_variance_initializer": {"class_name": "Ones", "config": {}}, "momentum": 0.99, "trainable": false, "gamma_constraint": null, "axis": 3, "gamma_regularizer": null}}, {"class_name": "BatchNormalization", "inbound_nodes": [[["conv2d_69", 0, 0, {}]]], "name": "batch_normalization_69", "config": {"gamma_initializer": {"class_name": "Ones", "config": {}}, "epsilon": 0.001, "scale": false, "beta_constraint": null, "name": "batch_normalization_69", "moving_mean_initializer": {"class_name": "Zeros", "config": {}}, "beta_regularizer": null, "center": true, "beta_initializer": {"class_name": "Zeros", "config": {}}, "moving_variance_initializer": {"class_name": "Ones", "config": {}}, "momentum": 0.99, "trainable": false, "gamma_constraint": null, "axis": 3, "gamma_regularizer": null}}, {"class_name": "BatchNormalization", "inbound_nodes": [[["conv2d_72", 0, 0, {}]]], "name": "batch_normalization_72", "config": {"gamma_initializer": {"class_name": "Ones", "config": {}}, "epsilon": 0.001, "scale": false, "beta_constraint": null, "name": "batch_normalization_72", "moving_mean_initializer": {"class_name": "Zeros", "config": {}}, "beta_regularizer": null, "center": true, "beta_initializer": {"class_name": "Zeros", "config": {}}, "moving_variance_initializer": {"class_name": "Ones", "config": {}}, "momentum": 0.99, "trainable": false, "gamma_constraint": null, "axis": 3, "gamma_regularizer": null}}, {"class_name": "Activation", "inbound_nodes": [[["batch_normalization_67", 0, 0, {}]]], "name": "activation_67", "config": {"activation": "relu", "name": "activation_67", "trainable": false}}, {"class_name": "Activation", "inbound_nodes": [[["batch_normalization_69", 0, 0, {}]]], "name": "activation_69", "config": {"activation": "relu", "name": "activation_69", "trainable": false}}, {"class_name": "Activation", "inbound_nodes": [[["batch_normalization_72", 0, 0, {}]]], "name": "activation_72", "config": {"activation": "relu", "name": "activation_72", "trainable": false}}, {"class_name": "Concatenate", "inbound_nodes": [[["activation_67", 0, 0, {}], ["activation_69", 0, 0, {}], ["activation_72", 0, 0, {}]]], "name": "block35_10_mixed", "config": {"axis": 3, "name": "block35_10_mixed", "trainable": false}}, {"class_name": "Conv2D", "inbound_nodes": [[["block35_10_mixed", 0, 0, {}]]], "name": "block35_10_conv", "config": {"bias_initializer": {"class_name": "Zeros", "config": {}}, "bias_regularizer": null, "activity_regularizer": null, "use_bias": true, "kernel_regularizer": null, "kernel_constraint": null, "kernel_size": [1, 1], "data_format": "channels_last", "filters": 320, "strides": [1, 1], "name": "block35_10_conv", "trainable": false, "padding": "same", "activation": "linear", "bias_constraint": null, "kernel_initializer": {"class_name": "VarianceScaling", "config": {"mode": "fan_avg", "distribution": "uniform", "seed": null, "scale": 1.0}}, "dilation_rate": [1, 1]}}, {"class_name": "Lambda", "inbound_nodes": [[["block35_9_ac", 0, 0, {}], ["block35_10_conv", 0, 0, {}]]], "name": "block35_10", "config": {"function": ["4wIAAAAAAAAAAgAAAAMAAABTAAAAcxQAAAB8AABkAQAZfAAAZAIAGXwBABQXUykDTukAAAAA6QEA\nAACpACkC2gZpbnB1dHPaBXNjYWxlcgMAAAByAwAAAPpQL3Vzci9sb2NhbC9saWIvcHl0aG9uMy41\nL2Rpc3QtcGFja2FnZXMva2VyYXNfYXBwbGljYXRpb25zL2luY2VwdGlvbl9yZXNuZXRfdjIucHna\nCDxsYW1iZGE+qAAAAPMAAAAA\n", null, null], "name": "block35_10", "output_shape_type": "raw", "trainable": false, "function_type": "lambda", "output_shape": [35, 35, 320], "arguments": {"scale": 0.17}}}, {"class_name": "Activation", "inbound_nodes": [[["block35_10", 0, 0, {}]]], "name": "block35_10_ac", "config": {"activation": "relu", "name": "block35_10_ac", "trainable": false}}, {"class_name": "Conv2D", "inbound_nodes": [[["block35_10_ac", 0, 0, {}]]], "name": "conv2d_74", "config": {"bias_initializer": {"class_name": "Zeros", "config": {}}, "bias_regularizer": null, "activity_regularizer": null, "use_bias": false, "kernel_regularizer": null, "kernel_constraint": null, "kernel_size": [1, 1], "data_format": "channels_last", "filters": 256, "strides": [1, 1], "name": "conv2d_74", "trainable": false, "padding": "same", "activation": "linear", "bias_constraint": null, "kernel_initializer": {"class_name": "VarianceScaling", "config": {"mode": "fan_avg", "distribution": "uniform", "seed": null, "scale": 1.0}}, "dilation_rate": [1, 1]}}, {"class_name": "BatchNormalization", "inbound_nodes": [[["conv2d_74", 0, 0, {}]]], "name": "batch_normalization_74", "config": {"gamma_initializer": {"class_name": "Ones", "config": {}}, "epsilon": 0.001, "scale": false, "beta_constraint": null, "name": "batch_normalization_74", "moving_mean_initializer": {"class_name": "Zeros", "config": {}}, "beta_regularizer": null, "center": true, "beta_initializer": {"class_name": "Zeros", "config": {}}, "moving_variance_initializer": {"class_name": "Ones", "config": {}}, "momentum": 0.99, "trainable": false, "gamma_constraint": null, "axis": 3, "gamma_regularizer": null}}, {"class_name": "Activation", "inbound_nodes": [[["batch_normalization_74", 0, 0, {}]]], "name": "activation_74", "config": {"activation": "relu", "name": "activation_74", "trainable": false}}, {"class_name": "Conv2D", "inbound_nodes": [[["activation_74", 0, 0, {}]]], "name": "conv2d_75", "config": {"bias_initializer": {"class_name": "Zeros", "config": {}}, "bias_regularizer": null, "activity_regularizer": null, "use_bias": false, "kernel_regularizer": null, "kernel_constraint": null, "kernel_size": [3, 3], "data_format": "channels_last", "filters": 256, "strides": [1, 1], "name": "conv2d_75", "trainable": false, "padding": "same", "activation": "linear", "bias_constraint": null, "kernel_initializer": {"class_name": "VarianceScaling", "config": {"mode": "fan_avg", "distribution": "uniform", "seed": null, "scale": 1.0}}, "dilation_rate": [1, 1]}}, {"class_name": "BatchNormalization", "inbound_nodes": [[["conv2d_75", 0, 0, {}]]], "name": "batch_normalization_75", "config": {"gamma_initializer": {"class_name": "Ones", "config": {}}, "epsilon": 0.001, "scale": false, "beta_constraint": null, "name": "batch_normalization_75", "moving_mean_initializer": {"class_name": "Zeros", "config": {}}, "beta_regularizer": null, "center": true, "beta_initializer": {"class_name": "Zeros", "config": {}}, "moving_variance_initializer": {"class_name": "Ones", "config": {}}, "momentum": 0.99, "trainable": false, "gamma_constraint": null, "axis": 3, "gamma_regularizer": null}}, {"class_name": "Activation", "inbound_nodes": [[["batch_normalization_75", 0, 0, {}]]], "name": "activation_75", "config": {"activation": "relu", "name": "activation_75", "trainable": false}}, {"class_name": "Conv2D", "inbound_nodes": [[["block35_10_ac", 0, 0, {}]]], "name": "conv2d_73", "config": {"bias_initializer": {"class_name": "Zeros", "config": {}}, "bias_regularizer": null, "activity_regularizer": null, "use_bias": false, "kernel_regularizer": null, "kernel_constraint": null, "kernel_size": [3, 3], "data_format": "channels_last", "filters": 384, "strides": [2, 2], "name": "conv2d_73", "trainable": true, "padding": "valid", "activation": "linear", "bias_constraint": null, "kernel_initializer": {"class_name": "VarianceScaling", "config": {"mode": "fan_avg", "distribution": "uniform", "seed": null, "scale": 1.0}}, "dilation_rate": [1, 1]}}, {"class_name": "Conv2D", "inbound_nodes": [[["activation_75", 0, 0, {}]]], "name": "conv2d_76", "config": {"bias_initializer": {"class_name": "Zeros", "config": {}}, "bias_regularizer": null, "activity_regularizer": null, "use_bias": false, "kernel_regularizer": null, "kernel_constraint": null, "kernel_size": [3, 3], "data_format": "channels_last", "filters": 384, "strides": [2, 2], "name": "conv2d_76", "trainable": true, "padding": "valid", "activation": "linear", "bias_constraint": null, "kernel_initializer": {"class_name": "VarianceScaling", "config": {"mode": "fan_avg", "distribution": "uniform", "seed": null, "scale": 1.0}}, "dilation_rate": [1, 1]}}, {"class_name": "BatchNormalization", "inbound_nodes": [[["conv2d_73", 0, 0, {}]]], "name": "batch_normalization_73", "config": {"gamma_initializer": {"class_name": "Ones", "config": {}}, "epsilon": 0.001, "scale": false, "beta_constraint": null, "name": "batch_normalization_73", "moving_mean_initializer": {"class_name": "Zeros", "config": {}}, "beta_regularizer": null, "center": true, "beta_initializer": {"class_name": "Zeros", "config": {}}, "moving_variance_initializer": {"class_name": "Ones", "config": {}}, "momentum": 0.99, "trainable": true, "gamma_constraint": null, "axis": 3, "gamma_regularizer": null}}, {"class_name": "BatchNormalization", "inbound_nodes": [[["conv2d_76", 0, 0, {}]]], "name": "batch_normalization_76", "config": {"gamma_initializer": {"class_name": "Ones", "config": {}}, "epsilon": 0.001, "scale": false, "beta_constraint": null, "name": "batch_normalization_76", "moving_mean_initializer": {"class_name": "Zeros", "config": {}}, "beta_regularizer": null, "center": true, "beta_initializer": {"class_name": "Zeros", "config": {}}, "moving_variance_initializer": {"class_name": "Ones", "config": {}}, "momentum": 0.99, "trainable": true, "gamma_constraint": null, "axis": 3, "gamma_regularizer": null}}, {"class_name": "Activation", "inbound_nodes": [[["batch_normalization_73", 0, 0, {}]]], "name": "activation_73", "config": {"activation": "relu", "name": "activation_73", "trainable": true}}, {"class_name": "Activation", "inbound_nodes": [[["batch_normalization_76", 0, 0, {}]]], "name": "activation_76", "config": {"activation": "relu", "name": "activation_76", "trainable": true}}, {"class_name": "MaxPooling2D", "inbound_nodes": [[["block35_10_ac", 0, 0, {}]]], "name": "max_pooling2d_3", "config": {"strides": [2, 2], "data_format": "channels_last", "trainable": true, "padding": "valid", "pool_size": [3, 3], "name": "max_pooling2d_3"}}, {"class_name": "Concatenate", "inbound_nodes": [[["activation_73", 0, 0, {}], ["activation_76", 0, 0, {}], ["max_pooling2d_3", 0, 0, {}]]], "name": "mixed_6a", "config": {"axis": 3, "name": "mixed_6a", "trainable": true}}, {"class_name": "Conv2D", "inbound_nodes": [[["mixed_6a", 0, 0, {}]]], "name": "conv2d_78", "config": {"bias_initializer": {"class_name": "Zeros", "config": {}}, "bias_regularizer": null, "activity_regularizer": null, "use_bias": false, "kernel_regularizer": null, "kernel_constraint": null, "kernel_size": [1, 1], "data_format": "channels_last", "filters": 128, "strides": [1, 1], "name": "conv2d_78", "trainable": true, "padding": "same", "activation": "linear", "bias_constraint": null, "kernel_initializer": {"class_name": "VarianceScaling", "config": {"mode": "fan_avg", "distribution": "uniform", "seed": null, "scale": 1.0}}, "dilation_rate": [1, 1]}}, {"class_name": "BatchNormalization", "inbound_nodes": [[["conv2d_78", 0, 0, {}]]], "name": "batch_normalization_78", "config": {"gamma_initializer": {"class_name": "Ones", "config": {}}, "epsilon": 0.001, "scale": false, "beta_constraint": null, "name": "batch_normalization_78", "moving_mean_initializer": {"class_name": "Zeros", "config": {}}, "beta_regularizer": null, "center": true, "beta_initializer": {"class_name": "Zeros", "config": {}}, "moving_variance_initializer": {"class_name": "Ones", "config": {}}, "momentum": 0.99, "trainable": true, "gamma_constraint": null, "axis": 3, "gamma_regularizer": null}}, {"class_name": "Activation", "inbound_nodes": [[["batch_normalization_78", 0, 0, {}]]], "name": "activation_78", "config": {"activation": "relu", "name": "activation_78", "trainable": true}}, {"class_name": "Conv2D", "inbound_nodes": [[["activation_78", 0, 0, {}]]], "name": "conv2d_79", "config": {"bias_initializer": {"class_name": "Zeros", "config": {}}, "bias_regularizer": null, "activity_regularizer": null, "use_bias": false, "kernel_regularizer": null, "kernel_constraint": null, "kernel_size": [1, 7], "data_format": "channels_last", "filters": 160, "strides": [1, 1], "name": "conv2d_79", "trainable": true, "padding": "same", "activation": "linear", "bias_constraint": null, "kernel_initializer": {"class_name": "VarianceScaling", "config": {"mode": "fan_avg", "distribution": "uniform", "seed": null, "scale": 1.0}}, "dilation_rate": [1, 1]}}, {"class_name": "BatchNormalization", "inbound_nodes": [[["conv2d_79", 0, 0, {}]]], "name": "batch_normalization_79", "config": {"gamma_initializer": {"class_name": "Ones", "config": {}}, "epsilon": 0.001, "scale": false, "beta_constraint": null, "name": "batch_normalization_79", "moving_mean_initializer": {"class_name": "Zeros", "config": {}}, "beta_regularizer": null, "center": true, "beta_initializer": {"class_name": "Zeros", "config": {}}, "moving_variance_initializer": {"class_name": "Ones", "config": {}}, "momentum": 0.99, "trainable": true, "gamma_constraint": null, "axis": 3, "gamma_regularizer": null}}, {"class_name": "Activation", "inbound_nodes": [[["batch_normalization_79", 0, 0, {}]]], "name": "activation_79", "config": {"activation": "relu", "name": "activation_79", "trainable": true}}, {"class_name": "Conv2D", "inbound_nodes": [[["mixed_6a", 0, 0, {}]]], "name": "conv2d_77", "config": {"bias_initializer": {"class_name": "Zeros", "config": {}}, "bias_regularizer": null, "activity_regularizer": null, "use_bias": false, "kernel_regularizer": null, "kernel_constraint": null, "kernel_size": [1, 1], "data_format": "channels_last", "filters": 192, "strides": [1, 1], "name": "conv2d_77", "trainable": true, "padding": "same", "activation": "linear", "bias_constraint": null, "kernel_initializer": {"class_name": "VarianceScaling", "config": {"mode": "fan_avg", "distribution": "uniform", "seed": null, "scale": 1.0}}, "dilation_rate": [1, 1]}}, {"class_name": "Conv2D", "inbound_nodes": [[["activation_79", 0, 0, {}]]], "name": "conv2d_80", "config": {"bias_initializer": {"class_name": "Zeros", "config": {}}, "bias_regularizer": null, "activity_regularizer": null, "use_bias": false, "kernel_regularizer": null, "kernel_constraint": null, "kernel_size": [7, 1], "data_format": "channels_last", "filters": 192, "strides": [1, 1], "name": "conv2d_80", "trainable": true, "padding": "same", "activation": "linear", "bias_constraint": null, "kernel_initializer": {"class_name": "VarianceScaling", "config": {"mode": "fan_avg", "distribution": "uniform", "seed": null, "scale": 1.0}}, "dilation_rate": [1, 1]}}, {"class_name": "BatchNormalization", "inbound_nodes": [[["conv2d_77", 0, 0, {}]]], "name": "batch_normalization_77", "config": {"gamma_initializer": {"class_name": "Ones", "config": {}}, "epsilon": 0.001, "scale": false, "beta_constraint": null, "name": "batch_normalization_77", "moving_mean_initializer": {"class_name": "Zeros", "config": {}}, "beta_regularizer": null, "center": true, "beta_initializer": {"class_name": "Zeros", "config": {}}, "moving_variance_initializer": {"class_name": "Ones", "config": {}}, "momentum": 0.99, "trainable": true, "gamma_constraint": null, "axis": 3, "gamma_regularizer": null}}, {"class_name": "BatchNormalization", "inbound_nodes": [[["conv2d_80", 0, 0, {}]]], "name": "batch_normalization_80", "config": {"gamma_initializer": {"class_name": "Ones", "config": {}}, "epsilon": 0.001, "scale": false, "beta_constraint": null, "name": "batch_normalization_80", "moving_mean_initializer": {"class_name": "Zeros", "config": {}}, "beta_regularizer": null, "center": true, "beta_initializer": {"class_name": "Zeros", "config": {}}, "moving_variance_initializer": {"class_name": "Ones", "config": {}}, "momentum": 0.99, "trainable": true, "gamma_constraint": null, "axis": 3, "gamma_regularizer": null}}, {"class_name": "Activation", "inbound_nodes": [[["batch_normalization_77", 0, 0, {}]]], "name": "activation_77", "config": {"activation": "relu", "name": "activation_77", "trainable": true}}, {"class_name": "Activation", "inbound_nodes": [[["batch_normalization_80", 0, 0, {}]]], "name": "activation_80", "config": {"activation": "relu", "name": "activation_80", "trainable": true}}, {"class_name": "Concatenate", "inbound_nodes": [[["activation_77", 0, 0, {}], ["activation_80", 0, 0, {}]]], "name": "block17_1_mixed", "config": {"axis": 3, "name": "block17_1_mixed", "trainable": true}}, {"class_name": "Conv2D", "inbound_nodes": [[["block17_1_mixed", 0, 0, {}]]], "name": "block17_1_conv", "config": {"bias_initializer": {"class_name": "Zeros", "config": {}}, "bias_regularizer": null, "activity_regularizer": null, "use_bias": true, "kernel_regularizer": null, "kernel_constraint": null, "kernel_size": [1, 1], "data_format": "channels_last", "filters": 1088, "strides": [1, 1], "name": "block17_1_conv", "trainable": true, "padding": "same", "activation": "linear", "bias_constraint": null, "kernel_initializer": {"class_name": "VarianceScaling", "config": {"mode": "fan_avg", "distribution": "uniform", "seed": null, "scale": 1.0}}, "dilation_rate": [1, 1]}}, {"class_name": "Lambda", "inbound_nodes": [[["mixed_6a", 0, 0, {}], ["block17_1_conv", 0, 0, {}]]], "name": "block17_1", "config": {"function": ["4wIAAAAAAAAAAgAAAAMAAABTAAAAcxQAAAB8AABkAQAZfAAAZAIAGXwBABQXUykDTukAAAAA6QEA\nAACpACkC2gZpbnB1dHPaBXNjYWxlcgMAAAByAwAAAPpQL3Vzci9sb2NhbC9saWIvcHl0aG9uMy41\nL2Rpc3QtcGFja2FnZXMva2VyYXNfYXBwbGljYXRpb25zL2luY2VwdGlvbl9yZXNuZXRfdjIucHna\nCDxsYW1iZGE+qAAAAPMAAAAA\n", null, null], "name": "block17_1", "output_shape_type": "raw", "trainable": true, "function_type": "lambda", "output_shape": [17, 17, 1088], "arguments": {"scale": 0.1}}}, {"class_name": "Activation", "inbound_nodes": [[["block17_1", 0, 0, {}]]], "name": "block17_1_ac", "config": {"activation": "relu", "name": "block17_1_ac", "trainable": true}}, {"class_name": "Conv2D", "inbound_nodes": [[["block17_1_ac", 0, 0, {}]]], "name": "conv2d_82", "config": {"bias_initializer": {"class_name": "Zeros", "config": {}}, "bias_regularizer": null, "activity_regularizer": null, "use_bias": false, "kernel_regularizer": null, "kernel_constraint": null, "kernel_size": [1, 1], "data_format": "channels_last", "filters": 128, "strides": [1, 1], "name": "conv2d_82", "trainable": true, "padding": "same", "activation": "linear", "bias_constraint": null, "kernel_initializer": {"class_name": "VarianceScaling", "config": {"mode": "fan_avg", "distribution": "uniform", "seed": null, "scale": 1.0}}, "dilation_rate": [1, 1]}}, {"class_name": "BatchNormalization", "inbound_nodes": [[["conv2d_82", 0, 0, {}]]], "name": "batch_normalization_82", "config": {"gamma_initializer": {"class_name": "Ones", "config": {}}, "epsilon": 0.001, "scale": false, "beta_constraint": null, "name": "batch_normalization_82", "moving_mean_initializer": {"class_name": "Zeros", "config": {}}, "beta_regularizer": null, "center": true, "beta_initializer": {"class_name": "Zeros", "config": {}}, "moving_variance_initializer": {"class_name": "Ones", "config": {}}, "momentum": 0.99, "trainable": true, "gamma_constraint": null, "axis": 3, "gamma_regularizer": null}}, {"class_name": "Activation", "inbound_nodes": [[["batch_normalization_82", 0, 0, {}]]], "name": "activation_82", "config": {"activation": "relu", "name": "activation_82", "trainable": true}}, {"class_name": "Conv2D", "inbound_nodes": [[["activation_82", 0, 0, {}]]], "name": "conv2d_83", "config": {"bias_initializer": {"class_name": "Zeros", "config": {}}, "bias_regularizer": null, "activity_regularizer": null, "use_bias": false, "kernel_regularizer": null, "kernel_constraint": null, "kernel_size": [1, 7], "data_format": "channels_last", "filters": 160, "strides": [1, 1], "name": "conv2d_83", "trainable": true, "padding": "same", "activation": "linear", "bias_constraint": null, "kernel_initializer": {"class_name": "VarianceScaling", "config": {"mode": "fan_avg", "distribution": "uniform", "seed": null, "scale": 1.0}}, "dilation_rate": [1, 1]}}, {"class_name": "BatchNormalization", "inbound_nodes": [[["conv2d_83", 0, 0, {}]]], "name": "batch_normalization_83", "config": {"gamma_initializer": {"class_name": "Ones", "config": {}}, "epsilon": 0.001, "scale": false, "beta_constraint": null, "name": "batch_normalization_83", "moving_mean_initializer": {"class_name": "Zeros", "config": {}}, "beta_regularizer": null, "center": true, "beta_initializer": {"class_name": "Zeros", "config": {}}, "moving_variance_initializer": {"class_name": "Ones", "config": {}}, "momentum": 0.99, "trainable": true, "gamma_constraint": null, "axis": 3, "gamma_regularizer": null}}, {"class_name": "Activation", "inbound_nodes": [[["batch_normalization_83", 0, 0, {}]]], "name": "activation_83", "config": {"activation": "relu", "name": "activation_83", "trainable": true}}, {"class_name": "Conv2D", "inbound_nodes": [[["block17_1_ac", 0, 0, {}]]], "name": "conv2d_81", "config": {"bias_initializer": {"class_name": "Zeros", "config": {}}, "bias_regularizer": null, "activity_regularizer": null, "use_bias": false, "kernel_regularizer": null, "kernel_constraint": null, "kernel_size": [1, 1], "data_format": "channels_last", "filters": 192, "strides": [1, 1], "name": "conv2d_81", "trainable": true, "padding": "same", "activation": "linear", "bias_constraint": null, "kernel_initializer": {"class_name": "VarianceScaling", "config": {"mode": "fan_avg", "distribution": "uniform", "seed": null, "scale": 1.0}}, "dilation_rate": [1, 1]}}, {"class_name": "Conv2D", "inbound_nodes": [[["activation_83", 0, 0, {}]]], "name": "conv2d_84", "config": {"bias_initializer": {"class_name": "Zeros", "config": {}}, "bias_regularizer": null, "activity_regularizer": null, "use_bias": false, "kernel_regularizer": null, "kernel_constraint": null, "kernel_size": [7, 1], "data_format": "channels_last", "filters": 192, "strides": [1, 1], "name": "conv2d_84", "trainable": true, "padding": "same", "activation": "linear", "bias_constraint": null, "kernel_initializer": {"class_name": "VarianceScaling", "config": {"mode": "fan_avg", "distribution": "uniform", "seed": null, "scale": 1.0}}, "dilation_rate": [1, 1]}}, {"class_name": "BatchNormalization", "inbound_nodes": [[["conv2d_81", 0, 0, {}]]], "name": "batch_normalization_81", "config": {"gamma_initializer": {"class_name": "Ones", "config": {}}, "epsilon": 0.001, "scale": false, "beta_constraint": null, "name": "batch_normalization_81", "moving_mean_initializer": {"class_name": "Zeros", "config": {}}, "beta_regularizer": null, "center": true, "beta_initializer": {"class_name": "Zeros", "config": {}}, "moving_variance_initializer": {"class_name": "Ones", "config": {}}, "momentum": 0.99, "trainable": true, "gamma_constraint": null, "axis": 3, "gamma_regularizer": null}}, {"class_name": "BatchNormalization", "inbound_nodes": [[["conv2d_84", 0, 0, {}]]], "name": "batch_normalization_84", "config": {"gamma_initializer": {"class_name": "Ones", "config": {}}, "epsilon": 0.001, "scale": false, "beta_constraint": null, "name": "batch_normalization_84", "moving_mean_initializer": {"class_name": "Zeros", "config": {}}, "beta_regularizer": null, "center": true, "beta_initializer": {"class_name": "Zeros", "config": {}}, "moving_variance_initializer": {"class_name": "Ones", "config": {}}, "momentum": 0.99, "trainable": true, "gamma_constraint": null, "axis": 3, "gamma_regularizer": null}}, {"class_name": "Activation", "inbound_nodes": [[["batch_normalization_81", 0, 0, {}]]], "name": "activation_81", "config": {"activation": "relu", "name": "activation_81", "trainable": true}}, {"class_name": "Activation", "inbound_nodes": [[["batch_normalization_84", 0, 0, {}]]], "name": "activation_84", "config": {"activation": "relu", "name": "activation_84", "trainable": true}}, {"class_name": "Concatenate", "inbound_nodes": [[["activation_81", 0, 0, {}], ["activation_84", 0, 0, {}]]], "name": "block17_2_mixed", "config": {"axis": 3, "name": "block17_2_mixed", "trainable": true}}, {"class_name": "Conv2D", "inbound_nodes": [[["block17_2_mixed", 0, 0, {}]]], "name": "block17_2_conv", "config": {"bias_initializer": {"class_name": "Zeros", "config": {}}, "bias_regularizer": null, "activity_regularizer": null, "use_bias": true, "kernel_regularizer": null, "kernel_constraint": null, "kernel_size": [1, 1], "data_format": "channels_last", "filters": 1088, "strides": [1, 1], "name": "block17_2_conv", "trainable": true, "padding": "same", "activation": "linear", "bias_constraint": null, "kernel_initializer": {"class_name": "VarianceScaling", "config": {"mode": "fan_avg", "distribution": "uniform", "seed": null, "scale": 1.0}}, "dilation_rate": [1, 1]}}, {"class_name": "Lambda", "inbound_nodes": [[["block17_1_ac", 0, 0, {}], ["block17_2_conv", 0, 0, {}]]], "name": "block17_2", "config": {"function": ["4wIAAAAAAAAAAgAAAAMAAABTAAAAcxQAAAB8AABkAQAZfAAAZAIAGXwBABQXUykDTukAAAAA6QEA\nAACpACkC2gZpbnB1dHPaBXNjYWxlcgMAAAByAwAAAPpQL3Vzci9sb2NhbC9saWIvcHl0aG9uMy41\nL2Rpc3QtcGFja2FnZXMva2VyYXNfYXBwbGljYXRpb25zL2luY2VwdGlvbl9yZXNuZXRfdjIucHna\nCDxsYW1iZGE+qAAAAPMAAAAA\n", null, null], "name": "block17_2", "output_shape_type": "raw", "trainable": true, "function_type": "lambda", "output_shape": [17, 17, 1088], "arguments": {"scale": 0.1}}}, {"class_name": "Activation", "inbound_nodes": [[["block17_2", 0, 0, {}]]], "name": "block17_2_ac", "config": {"activation": "relu", "name": "block17_2_ac", "trainable": true}}, {"class_name": "Conv2D", "inbound_nodes": [[["block17_2_ac", 0, 0, {}]]], "name": "conv2d_86", "config": {"bias_initializer": {"class_name": "Zeros", "config": {}}, "bias_regularizer": null, "activity_regularizer": null, "use_bias": false, "kernel_regularizer": null, "kernel_constraint": null, "kernel_size": [1, 1], "data_format": "channels_last", "filters": 128, "strides": [1, 1], "name": "conv2d_86", "trainable": true, "padding": "same", "activation": "linear", "bias_constraint": null, "kernel_initializer": {"class_name": "VarianceScaling", "config": {"mode": "fan_avg", "distribution": "uniform", "seed": null, "scale": 1.0}}, "dilation_rate": [1, 1]}}, {"class_name": "BatchNormalization", "inbound_nodes": [[["conv2d_86", 0, 0, {}]]], "name": "batch_normalization_86", "config": {"gamma_initializer": {"class_name": "Ones", "config": {}}, "epsilon": 0.001, "scale": false, "beta_constraint": null, "name": "batch_normalization_86", "moving_mean_initializer": {"class_name": "Zeros", "config": {}}, "beta_regularizer": null, "center": true, "beta_initializer": {"class_name": "Zeros", "config": {}}, "moving_variance_initializer": {"class_name": "Ones", "config": {}}, "momentum": 0.99, "trainable": true, "gamma_constraint": null, "axis": 3, "gamma_regularizer": null}}, {"class_name": "Activation", "inbound_nodes": [[["batch_normalization_86", 0, 0, {}]]], "name": "activation_86", "config": {"activation": "relu", "name": "activation_86", "trainable": true}}, {"class_name": "Conv2D", "inbound_nodes": [[["activation_86", 0, 0, {}]]], "name": "conv2d_87", "config": {"bias_initializer": {"class_name": "Zeros", "config": {}}, "bias_regularizer": null, "activity_regularizer": null, "use_bias": false, "kernel_regularizer": null, "kernel_constraint": null, "kernel_size": [1, 7], "data_format": "channels_last", "filters": 160, "strides": [1, 1], "name": "conv2d_87", "trainable": true, "padding": "same", "activation": "linear", "bias_constraint": null, "kernel_initializer": {"class_name": "VarianceScaling", "config": {"mode": "fan_avg", "distribution": "uniform", "seed": null, "scale": 1.0}}, "dilation_rate": [1, 1]}}, {"class_name": "BatchNormalization", "inbound_nodes": [[["conv2d_87", 0, 0, {}]]], "name": "batch_normalization_87", "config": {"gamma_initializer": {"class_name": "Ones", "config": {}}, "epsilon": 0.001, "scale": false, "beta_constraint": null, "name": "batch_normalization_87", "moving_mean_initializer": {"class_name": "Zeros", "config": {}}, "beta_regularizer": null, "center": true, "beta_initializer": {"class_name": "Zeros", "config": {}}, "moving_variance_initializer": {"class_name": "Ones", "config": {}}, "momentum": 0.99, "trainable": true, "gamma_constraint": null, "axis": 3, "gamma_regularizer": null}}, {"class_name": "Activation", "inbound_nodes": [[["batch_normalization_87", 0, 0, {}]]], "name": "activation_87", "config": {"activation": "relu", "name": "activation_87", "trainable": true}}, {"class_name": "Conv2D", "inbound_nodes": [[["block17_2_ac", 0, 0, {}]]], "name": "conv2d_85", "config": {"bias_initializer": {"class_name": "Zeros", "config": {}}, "bias_regularizer": null, "activity_regularizer": null, "use_bias": false, "kernel_regularizer": null, "kernel_constraint": null, "kernel_size": [1, 1], "data_format": "channels_last", "filters": 192, "strides": [1, 1], "name": "conv2d_85", "trainable": true, "padding": "same", "activation": "linear", "bias_constraint": null, "kernel_initializer": {"class_name": "VarianceScaling", "config": {"mode": "fan_avg", "distribution": "uniform", "seed": null, "scale": 1.0}}, "dilation_rate": [1, 1]}}, {"class_name": "Conv2D", "inbound_nodes": [[["activation_87", 0, 0, {}]]], "name": "conv2d_88", "config": {"bias_initializer": {"class_name": "Zeros", "config": {}}, "bias_regularizer": null, "activity_regularizer": null, "use_bias": false, "kernel_regularizer": null, "kernel_constraint": null, "kernel_size": [7, 1], "data_format": "channels_last", "filters": 192, "strides": [1, 1], "name": "conv2d_88", "trainable": true, "padding": "same", "activation": "linear", "bias_constraint":…
lass_name": "Conv2D", "inbound_nodes": [[["block8_4_mixed", 0, 0, {}]]], "name": "block8_4_conv", "config": {"bias_initializer": {"class_name": "Zeros", "config": {}}, "bias_regularizer": null, "activity_regularizer": null, "use_bias": true, "kernel_regularizer": null, "kernel_constraint": null, "kernel_size": [1, 1], "data_format": "channels_last", "filters": 2080, "strides": [1, 1], "name": "block8_4_conv", "trainable": true, "padding": "same", "activation": "linear", "bias_constraint": null, "kernel_initializer": {"class_name": "VarianceScaling", "config": {"mode": "fan_avg", "distribution": "uniform", "seed": null, "scale": 1.0}}, "dilation_rate": [1, 1]}}, {"class_name": "Lambda", "inbound_nodes": [[["block8_3_ac", 0, 0, {}], ["block8_4_conv", 0, 0, {}]]], "name": "block8_4", "config": {"function": ["4wIAAAAAAAAAAgAAAAMAAABTAAAAcxQAAAB8AABkAQAZfAAAZAIAGXwBABQXUykDTukAAAAA6QEA\nAACpACkC2gZpbnB1dHPaBXNjYWxlcgMAAAByAwAAAPpQL3Vzci9sb2NhbC9saWIvcHl0aG9uMy41\nL2Rpc3QtcGFja2FnZXMva2VyYXNfYXBwbGljYXRpb25zL2luY2VwdGlvbl9yZXNuZXRfdjIucHna\nCDxsYW1iZGE+qAAAAPMAAAAA\n", null, null], "name": "block8_4", "output_shape_type": "raw", "trainable": true, "function_type": "lambda", "output_shape": [8, 8, 2080], "arguments": {"scale": 0.2}}}, {"class_name": "Activation", "inbound_nodes": [[["block8_4", 0, 0, {}]]], "name": "block8_4_ac", "config": {"activation": "relu", "name": "block8_4_ac", "trainable": true}}, {"class_name": "Conv2D", "inbound_nodes": [[["block8_4_ac", 0, 0, {}]]], "name": "conv2d_181", "config": {"bias_initializer": {"class_name": "Zeros", "config": {}}, "bias_regularizer": null, "activity_regularizer": null, "use_bias": false, "kernel_regularizer": null, "kernel_constraint": null, "kernel_size": [1, 1], "data_format": "channels_last", "filters": 192, "strides": [1, 1], "name": "conv2d_181", "trainable": true, "padding": "same", "activation": "linear", "bias_constraint": null, "kernel_initializer": {"class_name": "VarianceScaling", "config": {"mode": "fan_avg", "distribution": "uniform", "seed": null, "scale": 1.0}}, "dilation_rate": [1, 1]}}, {"class_name": "BatchNormalization", "inbound_nodes": [[["conv2d_181", 0, 0, {}]]], "name": "batch_normalization_181", "config": {"gamma_initializer": {"class_name": "Ones", "config": {}}, "epsilon": 0.001, "scale": false, "beta_constraint": null, "name": "batch_normalization_181", "moving_mean_initializer": {"class_name": "Zeros", "config": {}}, "beta_regularizer": null, "center": true, "beta_initializer": {"class_name": "Zeros", "config": {}}, "moving_variance_initializer": {"class_name": "Ones", "config": {}}, "momentum": 0.99, "trainable": true, "gamma_constraint": null, "axis": 3, "gamma_regularizer": null}}, {"class_name": "Activation", "inbound_nodes": [[["batch_normalization_181", 0, 0, {}]]], "name": "activation_181", "config": {"activation": "relu", "name": "activation_181", "trainable": true}}, {"class_name": "Conv2D", "inbound_nodes": [[["activation_181", 0, 0, {}]]], "name": "conv2d_182", "config": {"bias_initializer": {"class_name": "Zeros", "config": {}}, "bias_regularizer": null, "activity_regularizer": null, "use_bias": false, "kernel_regularizer": null, "kernel_constraint": null, "kernel_size": [1, 3], "data_format": "channels_last", "filters": 224, "strides": [1, 1], "name": "conv2d_182", "trainable": true, "padding": "same", "activation": "linear", "bias_constraint": null, "kernel_initializer": {"class_name": "VarianceScaling", "config": {"mode": "fan_avg", "distribution": "uniform", "seed": null, "scale": 1.0}}, "dilation_rate": [1, 1]}}, {"class_name": "BatchNormalization", "inbound_nodes": [[["conv2d_182", 0, 0, {}]]], "name": "batch_normalization_182", "config": {"gamma_initializer": {"class_name": "Ones", "config": {}}, "epsilon": 0.001, "scale": false, "beta_constraint": null, "name": "batch_normalization_182", "moving_mean_initializer": {"class_name": "Zeros", "config": {}}, "beta_regularizer": null, "center": true, "beta_initializer": {"class_name": "Zeros", "config": {}}, "moving_variance_initializer": {"class_name": "Ones", "config": {}}, "momentum": 0.99, "trainable": true, "gamma_constraint": null, "axis": 3, "gamma_regularizer": null}}, {"class_name": "Activation", "inbound_nodes": [[["batch_normalization_182", 0, 0, {}]]], "name": "activation_182", "config": {"activation": "relu", "name": "activation_182", "trainable": true}}, {"class_name": "Conv2D", "inbound_nodes": [[["block8_4_ac", 0, 0, {}]]], "name": "conv2d_180", "config": {"bias_initializer": {"class_name": "Zeros", "config": {}}, "bias_regularizer": null, "activity_regularizer": null, "use_bias": false, "kernel_regularizer": null, "kernel_constraint": null, "kernel_size": [1, 1], "data_format": "channels_last", "filters": 192, "strides": [1, 1], "name": "conv2d_180", "trainable": true, "padding": "same", "activation": "linear", "bias_constraint": null, "kernel_initializer": {"class_name": "VarianceScaling", "config": {"mode": "fan_avg", "distribution": "uniform", "seed": null, "scale": 1.0}}, "dilation_rate": [1, 1]}}, {"class_name": "Conv2D", "inbound_nodes": [[["activation_182", 0, 0, {}]]], "name": "conv2d_183", "config": {"bias_initializer": {"class_name": "Zeros", "config": {}}, "bias_regularizer": null, "activity_regularizer": null, "use_bias": false, "kernel_regularizer": null, "kernel_constraint": null, "kernel_size": [3, 1], "data_format": "channels_last", "filters": 256, "strides": [1, 1], "name": "conv2d_183", "trainable": true, "padding": "same", "activation": "linear", "bias_constraint": null, "kernel_initializer": {"class_name": "VarianceScaling", "config": {"mode": "fan_avg", "distribution": "uniform", "seed": null, "scale": 1.0}}, "dilation_rate": [1, 1]}}, {"class_name": "BatchNormalization", "inbound_nodes": [[["conv2d_180", 0, 0, {}]]], "name": "batch_normalization_180", "config": {"gamma_initializer": {"class_name": "Ones", "config": {}}, "epsilon": 0.001, "scale": false, "beta_constraint": null, "name": "batch_normalization_180", "moving_mean_initializer": {"class_name": "Zeros", "config": {}}, "beta_regularizer": null, "center": true, "beta_initializer": {"class_name": "Zeros", "config": {}}, "moving_variance_initializer": {"class_name": "Ones", "config": {}}, "momentum": 0.99, "trainable": true, "gamma_constraint": null, "axis": 3, "gamma_regularizer": null}}, {"class_name": "BatchNormalization", "inbound_nodes": [[["conv2d_183", 0, 0, {}]]], "name": "batch_normalization_183", "config": {"gamma_initializer": {"class_name": "Ones", "config": {}}, "epsilon": 0.001, "scale": false, "beta_constraint": null, "name": "batch_normalization_183", "moving_mean_initializer": {"class_name": "Zeros", "config": {}}, "beta_regularizer": null, "center": true, "beta_initializer": {"class_name": "Zeros", "config": {}}, "moving_variance_initializer": {"class_name": "Ones", "config": {}}, "momentum": 0.99, "trainable": true, "gamma_constraint": null, "axis": 3, "gamma_regularizer": null}}, {"class_name": "Activation", "inbound_nodes": [[["batch_normalization_180", 0, 0, {}]]], "name": "activation_180", "config": {"activation": "relu", "name": "activation_180", "trainable": true}}, {"class_name": "Activation", "inbound_nodes": [[["batch_normalization_183", 0, 0, {}]]], "name": "activation_183", "config": {"activation": "relu", "name": "activation_183", "trainable": true}}, {"class_name": "Concatenate", "inbound_nodes": [[["activation_180", 0, 0, {}], ["activation_183", 0, 0, {}]]], "name": "block8_5_mixed", "config": {"axis": 3, "name": "block8_5_mixed", "trainable": true}}, {"class_name": "Conv2D", "inbound_nodes": [[["block8_5_mixed", 0, 0, {}]]], "name": "block8_5_conv", "config": {"bias_initializer": {"class_name": "Zeros", "config": {}}, "bias_regularizer": null, "activity_regularizer": null, "use_bias": true, "kernel_regularizer": null, "kernel_constraint": null, "kernel_size": [1, 1], "data_format": "channels_last", "filters": 2080, "strides": [1, 1], "name": "block8_5_conv", "trainable": true, "padding": "same", "activation": "linear", "bias_constraint": null, "kernel_initializer": {"class_name": "VarianceScaling", "config": {"mode": "fan_avg", "distribution": "uniform", "seed": null, "scale": 1.0}}, "dilation_rate": [1, 1]}}, {"class_name": "Lambda", "inbound_nodes": [[["block8_4_ac", 0, 0, {}], ["block8_5_conv", 0, 0, {}]]], "name": "block8_5", "config": {"function": ["4wIAAAAAAAAAAgAAAAMAAABTAAAAcxQAAAB8AABkAQAZfAAAZAIAGXwBABQXUykDTukAAAAA6QEA\nAACpACkC2gZpbnB1dHPaBXNjYWxlcgMAAAByAwAAAPpQL3Vzci9sb2NhbC9saWIvcHl0aG9uMy41\nL2Rpc3QtcGFja2FnZXMva2VyYXNfYXBwbGljYXRpb25zL2luY2VwdGlvbl9yZXNuZXRfdjIucHna\nCDxsYW1iZGE+qAAAAPMAAAAA\n", null, null], "name": "block8_5", "output_shape_type": "raw", "trainable": true, "function_type": "lambda", "output_shape": [8, 8, 2080], "arguments": {"scale": 0.2}}}, {"class_name": "Activation", "inbound_nodes": [[["block8_5", 0, 0, {}]]], "name": "block8_5_ac", "config": {"activation": "relu", "name": "block8_5_ac", "trainable": true}}, {"class_name": "Conv2D", "inbound_nodes": [[["block8_5_ac", 0, 0, {}]]], "name": "conv2d_185", "config": {"bias_initializer": {"class_name": "Zeros", "config": {}}, "bias_regularizer": null, "activity_regularizer": null, "use_bias": false, "kernel_regularizer": null, "kernel_constraint": null, "kernel_size": [1, 1], "data_format": "channels_last", "filters": 192, "strides": [1, 1], "name": "conv2d_185", "trainable": true, "padding": "same", "activation": "linear", "bias_constraint": null, "kernel_initializer": {"class_name": "VarianceScaling", "config": {"mode": "fan_avg", "distribution": "uniform", "seed": null, "scale": 1.0}}, "dilation_rate": [1, 1]}}, {"class_name": "BatchNormalization", "inbound_nodes": [[["conv2d_185", 0, 0, {}]]], "name": "batch_normalization_185", "config": {"gamma_initializer": {"class_name": "Ones", "config": {}}, "epsilon": 0.001, "scale": false, "beta_constraint": null, "name": "batch_normalization_185", "moving_mean_initializer": {"class_name": "Zeros", "config": {}}, "beta_regularizer": null, "center": true, "beta_initializer": {"class_name": "Zeros", "config": {}}, "moving_variance_initializer": {"class_name": "Ones", "config": {}}, "momentum": 0.99, "trainable": true, "gamma_constraint": null, "axis": 3, "gamma_regularizer": null}}, {"class_name": "Activation", "inbound_nodes": [[["batch_normalization_185", 0, 0, {}]]], "name": "activation_185", "config": {"activation": "relu", "name": "activation_185", "trainable": true}}, {"class_name": "Conv2D", "inbound_nodes": [[["activation_185", 0, 0, {}]]], "name": "conv2d_186", "config": {"bias_initializer": {"class_name": "Zeros", "config": {}}, "bias_regularizer": null, "activity_regularizer": null, "use_bias": false, "kernel_regularizer": null, "kernel_constraint": null, "kernel_size": [1, 3], "data_format": "channels_last", "filters": 224, "strides": [1, 1], "name": "conv2d_186", "trainable": true, "padding": "same", "activation": "linear", "bias_constraint": null, "kernel_initializer": {"class_name": "VarianceScaling", "config": {"mode": "fan_avg", "distribution": "uniform", "seed": null, "scale": 1.0}}, "dilation_rate": [1, 1]}}, {"class_name": "BatchNormalization", "inbound_nodes": [[["conv2d_186", 0, 0, {}]]], "name": "batch_normalization_186", "config": {"gamma_initializer": {"class_name": "Ones", "config": {}}, "epsilon": 0.001, "scale": false, "beta_constraint": null, "name": "batch_normalization_186", "moving_mean_initializer": {"class_name": "Zeros", "config": {}}, "beta_regularizer": null, "center": true, "beta_initializer": {"class_name": "Zeros", "config": {}}, "moving_variance_initializer": {"class_name": "Ones", "config": {}}, "momentum": 0.99, "trainable": true, "gamma_constraint": null, "axis": 3, "gamma_regularizer": null}}, {"class_name": "Activation", "inbound_nodes": [[["batch_normalization_186", 0, 0, {}]]], "name": "activation_186", "config": {"activation": "relu", "name": "activation_186", "trainable": true}}, {"class_name": "Conv2D", "inbound_nodes": [[["block8_5_ac", 0, 0, {}]]], "name": "conv2d_184", "config": {"bias_initializer": {"class_name": "Zeros", "config": {}}, "bias_regularizer": null, "activity_regularizer": null, "use_bias": false, "kernel_regularizer": null, "kernel_constraint": null, "kernel_size": [1, 1], "data_format": "channels_last", "filters": 192, "strides": [1, 1], "name": "conv2d_184", "trainable": true, "padding": "same", "activation": "linear", "bias_constraint": null, "kernel_initializer": {"class_name": "VarianceScaling", "config": {"mode": "fan_avg", "distribution": "uniform", "seed": null, "scale": 1.0}}, "dilation_rate": [1, 1]}}, {"class_name": "Conv2D", "inbound_nodes": [[["activation_186", 0, 0, {}]]], "name": "conv2d_187", "config": {"bias_initializer": {"class_name": "Zeros", "config": {}}, "bias_regularizer": null, "activity_regularizer": null, "use_bias": false, "kernel_regularizer": null, "kernel_constraint": null, "kernel_size": [3, 1], "data_format": "channels_last", "filters": 256, "strides": [1, 1], "name": "conv2d_187", "trainable": true, "padding": "same", "activation": "linear", "bias_constraint": null, "kernel_initializer": {"class_name": "VarianceScaling", "config": {"mode": "fan_avg", "distribution": "uniform", "seed": null, "scale": 1.0}}, "dilation_rate": [1, 1]}}, {"class_name": "BatchNormalization", "inbound_nodes": [[["conv2d_184", 0, 0, {}]]], "name": "batch_normalization_184", "config": {"gamma_initializer": {"class_name": "Ones", "config": {}}, "epsilon": 0.001, "scale": false, "beta_constraint": null, "name": "batch_normalization_184", "moving_mean_initializer": {"class_name": "Zeros", "config": {}}, "beta_regularizer": null, "center": true, "beta_initializer": {"class_name": "Zeros", "config": {}}, "moving_variance_initializer": {"class_name": "Ones", "config": {}}, "momentum": 0.99, "trainable": true, "gamma_constraint": null, "axis": 3, "gamma_regularizer": null}}, {"class_name": "BatchNormalization", "inbound_nodes": [[["conv2d_187", 0, 0, {}]]], "name": "batch_normalization_187", "config": {"gamma_initializer": {"class_name": "Ones", "config": {}}, "epsilon": 0.001, "scale": false, "beta_constraint": null, "name": "batch_normalization_187", "moving_mean_initializer": {"class_name": "Zeros", "config": {}}, "beta_regularizer": null, "center": true, "beta_initializer": {"class_name": "Zeros", "config": {}}, "moving_variance_initializer": {"class_name": "Ones", "config": {}}, "momentum": 0.99, "trainable": true, "gamma_constraint": null, "axis": 3, "gamma_regularizer": null}}, {"class_name": "Activation", "inbound_nodes": [[["batch_normalization_184", 0, 0, {}]]], "name": "activation_184", "config": {"activation": "relu", "name": "activation_184", "trainable": true}}, {"class_name": "Activation", "inbound_nodes": [[["batch_normalization_187", 0, 0, {}]]], "name": "activation_187", "config": {"activation": "relu", "name": "activation_187", "trainable": true}}, {"class_name": "Concatenate", "inbound_nodes": [[["activation_184", 0, 0, {}], ["activation_187", 0, 0, {}]]], "name": "block8_6_mixed", "config": {"axis": 3, "name": "block8_6_mixed", "trainable": true}}, {"class_name": "Conv2D", "inbound_nodes": [[["block8_6_mixed", 0, 0, {}]]], "name": "block8_6_conv", "config": {"bias_initializer": {"class_name": "Zeros", "config": {}}, "bias_regularizer": null, "activity_regularizer": null, "use_bias": true, "kernel_regularizer": null, "kernel_constraint": null, "kernel_size": [1, 1], "data_format": "channels_last", "filters": 2080, "strides": [1, 1], "name": "block8_6_conv", "trainable": true, "padding": "same", "activation": "linear", "bias_constraint": null, "kernel_initializer": {"class_name": "VarianceScaling", "config": {"mode": "fan_avg", "distribution": "uniform", "seed": null, "scale": 1.0}}, "dilation_rate": [1, 1]}}, {"class_name": "Lambda", "inbound_nodes": [[["block8_5_ac", 0, 0, {}], ["block8_6_conv", 0, 0, {}]]], "name": "block8_6", "config": {"function": ["4wIAAAAAAAAAAgAAAAMAAABTAAAAcxQAAAB8AABkAQAZfAAAZAIAGXwBABQXUykDTukAAAAA6QEA\nAACpACkC2gZpbnB1dHPaBXNjYWxlcgMAAAByAwAAAPpQL3Vzci9sb2NhbC9saWIvcHl0aG9uMy41\nL2Rpc3QtcGFja2FnZXMva2VyYXNfYXBwbGljYXRpb25zL2luY2VwdGlvbl9yZXNuZXRfdjIucHna\nCDxsYW1iZGE+qAAAAPMAAAAA\n", null, null], "name": "block8_6", "output_shape_type": "raw", "trainable": true, "function_type": "lambda", "output_shape": [8, 8, 2080], "arguments": {"scale": 0.2}}}, {"class_name": "Activation", "inbound_nodes": [[["block8_6", 0, 0, {}]]], "name": "block8_6_ac", "config": {"activation": "relu", "name": "block8_6_ac", "trainable": true}}, {"class_name": "Conv2D", "inbound_nodes": [[["block8_6_ac", 0, 0, {}]]], "name": "conv2d_189", "config": {"bias_initializer": {"class_name": "Zeros", "config": {}}, "bias_regularizer": null, "activity_regularizer": null, "use_bias": false, "kernel_regularizer": null, "kernel_constraint": null, "kernel_size": [1, 1], "data_format": "channels_last", "filters": 192, "strides": [1, 1], "name": "conv2d_189", "trainable": true, "padding": "same", "activation": "linear", "bias_constraint": null, "kernel_initializer": {"class_name": "VarianceScaling", "config": {"mode": "fan_avg", "distribution": "uniform", "seed": null, "scale": 1.0}}, "dilation_rate": [1, 1]}}, {"class_name": "BatchNormalization", "inbound_nodes": [[["conv2d_189", 0, 0, {}]]], "name": "batch_normalization_189", "config": {"gamma_initializer": {"class_name": "Ones", "config": {}}, "epsilon": 0.001, "scale": false, "beta_constraint": null, "name": "batch_normalization_189", "moving_mean_initializer": {"class_name": "Zeros", "config": {}}, "beta_regularizer": null, "center": true, "beta_initializer": {"class_name": "Zeros", "config": {}}, "moving_variance_initializer": {"class_name": "Ones", "config": {}}, "momentum": 0.99, "trainable": true, "gamma_constraint": null, "axis": 3, "gamma_regularizer": null}}, {"class_name": "Activation", "inbound_nodes": [[["batch_normalization_189", 0, 0, {}]]], "name": "activation_189", "config": {"activation": "relu", "name": "activation_189", "trainable": true}}, {"class_name": "Conv2D", "inbound_nodes": [[["activation_189", 0, 0, {}]]], "name": "conv2d_190", "config": {"bias_initializer": {"class_name": "Zeros", "config": {}}, "bias_regularizer": null, "activity_regularizer": null, "use_bias": false, "kernel_regularizer": null, "kernel_constraint": null, "kernel_size": [1, 3], "data_format": "channels_last", "filters": 224, "strides": [1, 1], "name": "conv2d_190", "trainable": true, "padding": "same", "activation": "linear", "bias_constraint": null, "kernel_initializer": {"class_name": "VarianceScaling", "config": {"mode": "fan_avg", "distribution": "uniform", "seed": null, "scale": 1.0}}, "dilation_rate": [1, 1]}}, {"class_name": "BatchNormalization", "inbound_nodes": [[["conv2d_190", 0, 0, {}]]], "name": "batch_normalization_190", "config": {"gamma_initializer": {"class_name": "Ones", "config": {}}, "epsilon": 0.001, "scale": false, "beta_constraint": null, "name": "batch_normalization_190", "moving_mean_initializer": {"class_name": "Zeros", "config": {}}, "beta_regularizer": null, "center": true, "beta_initializer": {"class_name": "Zeros", "config": {}}, "moving_variance_initializer": {"class_name": "Ones", "config": {}}, "momentum": 0.99, "trainable": true, "gamma_constraint": null, "axis": 3, "gamma_regularizer": null}}, {"class_name": "Activation", "inbound_nodes": [[["batch_normalization_190", 0, 0, {}]]], "name": "activation_190", "config": {"activation": "relu", "name": "activation_190", "trainable": true}}, {"class_name": "Conv2D", "inbound_nodes": [[["block8_6_ac", 0, 0, {}]]], "name": "conv2d_188", "config": {"bias_initializer": {"class_name": "Zeros", "config": {}}, "bias_regularizer": null, "activity_regularizer": null, "use_bias": false, "kernel_regularizer": null, "kernel_constraint": null, "kernel_size": [1, 1], "data_format": "channels_last", "filters": 192, "strides": [1, 1], "name": "conv2d_188", "trainable": true, "padding": "same", "activation": "linear", "bias_constraint": null, "kernel_initializer": {"class_name": "VarianceScaling", "config": {"mode": "fan_avg", "distribution": "uniform", "seed": null, "scale": 1.0}}, "dilation_rate": [1, 1]}}, {"class_name": "Conv2D", "inbound_nodes": [[["activation_190", 0, 0, {}]]], "name": "conv2d_191", "config": {"bias_initializer": {"class_name": "Zeros", "config": {}}, "bias_regularizer": null, "activity_regularizer": null, "use_bias": false, "kernel_regularizer": null, "kernel_constraint": null, "kernel_size": [3, 1], "data_format": "channels_last", "filters": 256, "strides": [1, 1], "name": "conv2d_191", "trainable": true, "padding": "same", "activation": "linear", "bias_constraint": null, "kernel_initializer": {"class_name": "VarianceScaling", "config": {"mode": "fan_avg", "distribution": "uniform", "seed": null, "scale": 1.0}}, "dilation_rate": [1, 1]}}, {"class_name": "BatchNormalization", "inbound_nodes": [[["conv2d_188", 0, 0, {}]]], "name": "batch_normalization_188", "config": {"gamma_initializer": {"class_name": "Ones", "config": {}}, "epsilon": 0.001, "scale": false, "beta_constraint": null, "name": "batch_normalization_188", "moving_mean_initializer": {"class_name": "Zeros", "config": {}}, "beta_regularizer": null, "center": true, "beta_initializer": {"class_name": "Zeros", "config": {}}, "moving_variance_initializer": {"class_name": "Ones", "config": {}}, "momentum": 0.99, "trainable": true, "gamma_constraint": null, "axis": 3, "gamma_regularizer": null}}, {"class_name": "BatchNormalization", "inbound_nodes": [[["conv2d_191", 0, 0, {}]]], "name": "batch_normalization_191", "config": {"gamma_initializer": {"class_name": "Ones", "config": {}}, "epsilon": 0.001, "scale": false, "beta_constraint": null, "name": "batch_normalization_191", "moving_mean_initializer": {"class_name": "Zeros", "config": {}}, "beta_regularizer": null, "center": true, "beta_initializer": {"class_name": "Zeros", "config": {}}, "moving_variance_initializer": {"class_name": "Ones", "config": {}}, "momentum": 0.99, "trainable": true, "gamma_constraint": null, "axis": 3, "gamma_regularizer": null}}, {"class_name": "Activation", "inbound_nodes": [[["batch_normalization_188", 0, 0, {}]]], "name": "activation_188", "config": {"activation": "relu", "name": "activation_188", "trainable": true}}, {"class_name": "Activation", "inbound_nodes": [[["batch_normalization_191", 0, 0, {}]]], "name": "activation_191", "config": {"activation": "relu", "name": "activation_191", "trainable": true}}, {"class_name": "Concatenate", "inbound_nodes": [[["activation_188", 0, 0, {}], ["activation_191", 0, 0, {}]]], "name": "block8_7_mixed", "config": {"axis": 3, "name": "block8_7_mixed", "trainable": true}}, {"class_name": "Conv2D", "inbound_nodes": [[["block8_7_mixed", 0, 0, {}]]], "name": "block8_7_conv", "config": {"bias_initializer": {"class_name": "Zeros", "config": {}}, "bias_regularizer": null, "activity_regularizer": null, "use_bias": true, "kernel_regularizer": null, "kernel_constraint": null, "kernel_size": [1, 1], "data_format": "channels_last", "filters": 2080, "strides": [1, 1], "name": "block8_7_conv", "trainable": true, "padding": "same", "activation": "linear", "bias_constraint": null, "kernel_initializer": {"class_name": "VarianceScaling", "config": {"mode": "fan_avg", "distribution": "uniform", "seed": null, "scale": 1.0}}, "dilation_rate": [1, 1]}}, {"class_name": "Lambda", "inbound_nodes": [[["block8_6_ac", 0, 0, {}], ["block8_7_conv", 0, 0, {}]]], "name": "block8_7", "config": {"function": ["4wIAAAAAAAAAAgAAAAMAAABTAAAAcxQAAAB8AABkAQAZfAAAZAIAGXwBABQXUykDTukAAAAA6QEA\nAACpACkC2gZpbnB1dHPaBXNjYWxlcgMAAAByAwAAAPpQL3Vzci9sb2NhbC9saWIvcHl0aG9uMy41\nL2Rpc3QtcGFja2FnZXMva2VyYXNfYXBwbGljYXRpb25zL2luY2VwdGlvbl9yZXNuZXRfdjIucHna\nCDxsYW1iZGE+qAAAAPMAAAAA\n", null, null], "name": "block8_7", "output_shape_type": "raw", "trainable": true, "function_type": "lambda", "output_shape": [8, 8, 2080], "arguments": {"scale": 0.2}}}, {"class_name": "Activation", "inbound_nodes": [[["block8_7", 0, 0, {}]]], "name": "block8_7_ac", "config": {"activation": "relu", "name": "block8_7_ac", "trainable": true}}, {"class_name": "Conv2D", "inbound_nodes": [[["block8_7_ac", 0, 0, {}]]], "name": "conv2d_193", "config": {"bias_initializer": {"class_name": "Zeros", "config": {}}, "bias_regularizer": null, "activity_regularizer": null, "use_bias": false, "kernel_regularizer": null, "kernel_constraint": null, "kernel_size": [1, 1], "data_format": "channels_last", "filters": 192, "strides": [1, 1], "name": "conv2d_193", "trainable": true, "padding": "same", "activation": "linear", "bias_constraint": null, "kernel_initializer": {"class_name": "VarianceScaling", "config": {"mode": "fan_avg", "distribution": "uniform", "seed": null, "scale": 1.0}}, "dilation_rate": [1, 1]}}, {"class_name": "BatchNormalization", "inbound_nodes": [[["conv2d_193", 0, 0, {}]]], "name": "batch_normalization_193", "config": {"gamma_initializer": {"class_name": "Ones", "config": {}}, "epsilon": 0.001, "scale": false, "beta_constraint": null, "name": "batch_normalization_193", "moving_mean_initializer": {"class_name": "Zeros", "config": {}}, "beta_regularizer": null, "center": true, "beta_initializer": {"class_name": "Zeros", "config": {}}, "moving_variance_initializer": {"class_name": "Ones", "config": {}}, "momentum": 0.99, "trainable": true, "gamma_constraint": null, "axis": 3, "gamma_regularizer": null}}, {"class_name": "Activation", "inbound_nodes": [[["batch_normalization_193", 0, 0, {}]]], "name": "activation_193", "config": {"activation": "relu", "name": "activation_193", "trainable": true}}, {"class_name": "Conv2D", "inbound_nodes": [[["activation_193", 0, 0, {}]]], "name": "conv2d_194", "config": {"bias_initializer": {"class_name": "Zeros", "config": {}}, "bias_regularizer": null, "activity_regularizer": null, "use_bias": false, "kernel_regularizer": null, "kernel_constraint": null, "kernel_size": [1, 3], "data_format": "channels_last", "filters": 224, "strides": [1, 1], "name": "conv2d_194", "trainable": true, "padding": "same", "activation": "linear", "bias_constraint": null, "kernel_initializer": {"class_name": "VarianceScaling", "config": {"mode": "fan_avg", "distribution": "uniform", "seed": null, "scale": 1.0}}, "dilation_rate": [1, 1]}}, {"class_name": "BatchNormalization", "inbound_nodes": [[["conv2d_194", 0, 0, {}]]], "name": "batch_normalization_194", "config": {"gamma_initializer": {"class_name": "Ones", "config": {}}, "epsilon": 0.001, "scale": false, "beta_constraint": null, "name": "batch_normalization_194", "moving_mean_initializer": {"class_name": "Zeros", "config": {}}, "beta_regularizer": null, "center": true, "beta_initializer": {"class_name": "Zeros", "config": {}}, "moving_variance_initializer": {"class_name": "Ones", "config": {}}, "momentum": 0.99, "trainable": true, "gamma_constraint": null, "axis": 3, "gamma_regularizer": null}}, {"class_name": "Activation", "inbound_nodes": [[["batch_normalization_194", 0, 0, {}]]], "name": "activation_194", "config": {"activation": "relu", "name": "activation_194", "trainable": true}}, {"class_name": "Conv2D", "inbound_nodes": [[["block8_7_ac", 0, 0, {}]]], "name": "conv2d_192", "config": {"bias_initializer": {"class_name": "Zeros", "config": {}}, "bias_regularizer": null, "activity_regularizer": null, "use_bias": false, "kernel_regularizer": null, "kernel_constraint": null, "kernel_size": [1, 1], "data_format": "channels_last", "filters": 192, "strides": [1, 1], "name": "conv2d_192", "trainable": true, "padding": "same", "activation": "linear", "bias_constraint": null, "kernel_initializer": {"class_name": "VarianceScaling", "config": {"mode": "fan_avg", "distribution": "uniform", "seed": null, "scale": 1.0}}, "dilation_rate": [1, 1]}}, {"class_name": "Conv2D", "inbound_nodes": [[["activation_194", 0, 0, {}]]], "name": "conv2d_195", "config": {"bias_initializer": {"class_name": "Zeros", "config": {}}, "bias_regularizer": null, "activity_regularizer": null, "use_bias": false, "kernel_regularizer": null, "kernel_constraint": null, "kernel_size": [3, 1], "data_format": "channels_last", "filters": 256, "strides": [1, 1], "name": "conv2d_195", "trainable": true, "padding": "same", "activation": "linear", "bias_constraint": null, "kernel_initializer": {"class_name": "VarianceScaling", "config": {"mode": "fan_avg", "distribution": "uniform", "seed": null, "scale": 1.0}}, "dilation_rate": [1, 1]}}, {"class_name": "BatchNormalization", "inbound_nodes": [[["conv2d_192", 0, 0, {}]]], "name": "batch_normalization_192", "config": {"gamma_initializer": {"class_name": "Ones", "config": {}}, "epsilon": 0.001, "scale": false, "beta_constraint": null, "name": "batch_normalization_192", "moving_mean_initializer": {"class_name": "Zeros", "config": {}}, "beta_regularizer": null, "center": true, "beta_initializer": {"class_name": "Zeros", "config": {}}, "moving_variance_initializer": {"class_name": "Ones", "config": {}}, "momentum": 0.99, "trainable": true, "gamma_constraint": null, "axis": 3, "gamma_regularizer": null}}, {"class_name": "BatchNormalization", "inbound_nodes": [[["conv2d_195", 0, 0, {}]]], "name": "batch_normalization_195", "config": {"gamma_initializer": {"class_name": "Ones", "config": {}}, "epsilon": 0.001, "scale": false, "beta_constraint": null, "name": "batch_normalization_195", "moving_mean_initializer": {"class_name": "Zeros", "config": {}}, "beta_regularizer": null, "center": true, "beta_initializer": {"class_name": "Zeros", "config": {}}, "moving_variance_initializer": {"class_name": "Ones", "config": {}}, "momentum": 0.99, "trainable": true, "gamma_constraint": null, "axis": 3, "gamma_regularizer": null}}, {"class_name": "Activation", "inbound_nodes": [[["batch_normalization_192", 0, 0, {}]]], "name": "activation_192", "config": {"activation": "relu", "name": "activation_192", "trainable": true}}, {"class_name": "Activation", "inbound_nodes": [[["batch_normalization_195", 0, 0, {}]]], "name": "activation_195", "config": {"activation": "relu", "name": "activation_195", "trainable": true}}, {"class_name": "Concatenate", "inbound_nodes": [[["activation_192", 0, 0, {}], ["activation_195", 0, 0, {}]]], "name": "block8_8_mixed", "config": {"axis": 3, "name": "block8_8_mixed", "trainable": true}}, {"class_name": "Conv2D", "inbound_nodes": [[["block8_8_mixed", 0, 0, {}]]], "name": "block8_8_conv", "config": {"bias_initializer": {"class_name": "Zeros", "config": {}}, "bias_regularizer": null, "activity_regularizer": null, "use_bias": true, "kernel_regularizer": null, "kernel_constraint": null, "kernel_size": [1, 1], "data_format": "channels_last", "filters": 2080, "strides": [1, 1], "name": "block8_8_conv", "trainable": true, "padding": "same", "activation": "linear", "bias_constraint": null, "kernel_initializer": {"class_name": "VarianceScaling", "config": {"mode": "fan_avg", "distribution": "uniform", "seed": null, "scale": 1.0}}, "dilation_rate": [1, 1]}}, {"class_name": "Lambda", "inbound_nodes": [[["block8_7_ac", 0, 0, {}], ["block8_8_conv", 0, 0, {}]]], "name": "block8_8", "config": {"function": ["4wIAAAAAAAAAAgAAAAMAAABTAAAAcxQAAAB8AABkAQAZfAAAZAIAGXwBABQXUykDTukAAAAA6QEA\nAACpACkC2gZpbnB1dHPaBXNjYWxlcgMAAAByAwAAAPpQL3Vzci9sb2NhbC9saWIvcHl0aG9uMy41\nL2Rpc3QtcGFja2FnZXMva2VyYXNfYXBwbGljYXRpb25zL2luY2VwdGlvbl9yZXNuZXRfdjIucHna\nCDxsYW1iZGE+qAAAAPMAAAAA\n", null, null], "name": "block8_8", "output_shape_type": "raw", "trainable": true, "function_type": "lambda", "output_shape": [8, 8, 2080], "arguments": {"scale": 0.2}}}, {"class_name": "Activation", "inbound_nodes": [[["block8_8", 0, 0, {}]]], "name": "block8_8_ac", "config": {"activation": "relu", "name": "block8_8_ac", "trainable": true}}, {"class_name": "Conv2D", "inbound_nodes": [[["block8_8_ac", 0, 0, {}]]], "name": "conv2d_197", "config": {"bias_initializer": {"class_name": "Zeros", "config": {}}, "bias_regularizer": null, "activity_regularizer": null, "use_bias": false, "kernel_regularizer": null, "kernel_constraint": null, "kernel_size": [1, 1], "data_format": "channels_last", "filters": 192, "strides": [1, 1], "name": "conv2d_197", "trainable": true, "padding": "same", "activation": "linear", "bias_constraint": null, "kernel_initializer": {"class_name": "VarianceScaling", "config": {"mode": "fan_avg", "distribution": "uniform", "seed": null, "scale": 1.0}}, "dilation_rate": [1, 1]}}, {"class_name": "BatchNormalization", "inbound_nodes": [[["conv2d_197", 0, 0, {}]]], "name": "batch_normalization_197", "config": {"gamma_initializer": {"class_name": "Ones", "config": {}}, "epsilon": 0.001, "scale": false, "beta_constraint": null, "name": "batch_normalization_197", "moving_mean_initializer": {"class_name": "Zeros", "config": {}}, "beta_regularizer": null, "center": true, "beta_initializer": {"class_name": "Zeros", "config": {}}, "moving_variance_initializer": {"class_name": "Ones", "config": {}}, "momentum": 0.99, "trainable": true, "gamma_constraint": null, "axis": 3, "gamma_regularizer": null}}, {"class_name": "Activation", "inbound_nodes": [[["batch_normalization_197", 0, 0, {}]]], "name": "activation_197", "config": {"activation": "relu", "name": "activation_197", "trainable": true}}, {"class_name": "Conv2D", "inbound_nodes": [[["activation_197", 0, 0, {}]]], "name": "conv2d_198", "config": {"bias_initializer": {"class_name": "Zeros", "config": {}}, "bias_regularizer": null, "activity_regularizer": null, "use_bias": false, "kernel_regularizer": null, "kernel_constraint": null, "kernel_size": [1, 3], "data_format": "channels_last", "filters": 224, "strides": [1, 1], "name": "conv2d_198", "trainable": true, "padding": "same", "activation": "linear", "bias_constraint": null, "kernel_initializer": {"class_name": "VarianceScaling", "config": {"mode": "fan_avg", "distribution": "uniform", "seed": null, "scale": 1.0}}, "dilation_rate": [1, 1]}}, {"class_name": "BatchNormalization", "inbound_nodes": [[["conv2d_198", 0, 0, {}]]], "name": "batch_normalization_198", "config": {"gamma_initializer": {"class_name": "Ones", "config": {}}, "epsilon": 0.001, "scale": false, "beta_constraint": null, "name": "batch_normalization_198", "moving_mean_initializer": {"class_name": "Zeros", "config": {}}, "beta_regularizer": null, "center": true, "beta_initializer": {"class_name": "Zeros", "config": {}}, "moving_variance_initializer": {"class_name": "Ones", "config": {}}, "momentum": 0.99, "trainable": true, "gamma_constraint": null, "axis": 3, "gamma_regularizer": null}}, {"class_name": "Activation", "inbound_nodes": [[["batch_normalization_198", 0, 0, {}]]], "name": "activation_198", "config": {"activation": "relu", "name": "activation_198", "trainable": true}}, {"class_name": "Conv2D", "inbound_nodes": [[["block8_8_ac", 0, 0, {}]]], "name": "conv2d_196", "config": {"bias_initializer": {"class_name": "Zeros", "config": {}}, "bias_regularizer": null, "activity_regularizer": null, "use_bias": false, "kernel_regularizer": null, "kernel_constraint": null, "kernel_size": [1, 1], "data_format": "channels_last", "filters": 192, "strides": [1, 1], "name": "conv2d_196", "trainable": true, "padding": "same", "activation": "linear", "bias_constraint": null, "kernel_initializer": {"class_name": "VarianceScaling", "config": {"mode": "fan_avg", "distribution": "uniform", "seed": null, "scale": 1.0}}, "dilation_rate": [1, 1]}}, {"class_name": "Conv2D", "inbound_nodes": [[["activation_198", 0, 0, {}]]], "name": "conv2d_199", "config": {"bias_initializer": {"class_name": "Zeros", "config": {}}, "bias_regularizer": null, "activity_regularizer": null, "use_bias": false, "kernel_regularizer": null, "kernel_constraint": null, "kernel_size": [3, 1], "data_format": "channels_last", "filters": 256, "strides": [1, 1], "name": "conv2d_199", "trainable": true, "padding": "same", "activation": "linear", "bias_constraint": null, "kernel_initializer": {"class_name": "VarianceScaling", "config": {"mode": "fan_avg", "distribution": "uniform", "seed": null, "scale": 1.0}}, "dilation_rate": [1, 1]}}, {"class_name": "BatchNormalization", "inbound_nodes": [[["conv2d_196", 0, 0, {}]]], "name": "batch_normalization_196", "config": {"gamma_initializer": {"class_name": "Ones", "config": {}}, "epsilon": 0.001, "scale": false, "beta_constraint": null, "name": "batch_normalization_196", "moving_mean_initializer": {"class_name": "Zeros", "config": {}}, "beta_regularizer": null, "center": true, "beta_initializer": {"class_name": "Zeros", "config": {}}, "moving_variance_initializer": {"class_name": "Ones", "config": {}}, "momentum": 0.99, "trainable": true, "gamma_constraint": null, "axis": 3, "gamma_regularizer": null}}, {"class_name": "BatchNormalization", "inbound_nodes": [[["conv2d_199", 0, 0, {}]]], "name": "batch_normalization_199", "config": {"gamma_initializer": {"class_name": "Ones", "config": {}}, "epsilon": 0.001, "scale": false, "beta_constraint": null, "name": "batch_normalization_199", "moving_mean_initializer": {"class_name": "Zeros", "config": {}}, "beta_regularizer": null, "center": true, "beta_initializer": {"class_name": "Zeros", "config": {}}, "moving_variance_initializer": {"class_name": "Ones", "config": {}}, "momentum": 0.99, "trainable": true, "gamma_constraint": null, "axis": 3, "gamma_regularizer": null}}, {"class_name": "Activation", "inbound_nodes": [[["batch_normalization_196", 0, 0, {}]]], "name": "activation_196", "config": {"activation": "relu", "name": "activation_196", "trainable": true}}, {"class_name": "Activation", "inbound_nodes": [[["batch_normalization_199", 0, 0, {}]]], "name": "activation_199", "config": {"activation": "relu", "name": "activation_199", "trainable": true}}, {"class_name": "Concatenate", "inbound_nodes": [[["activation_196", 0, 0, {}], ["activation_199", 0, 0, {}]]], "name": "block8_9_mixed", "config": {"axis": 3, "name": "block8_9_mixed", "trainable": true}}, {"class_name": "Conv2D", "inbound_nodes": [[["block8_9_mixed", 0, 0, {}]]], "name": "block8_9_conv", "config": {"bias_initializer": {"class_name": "Zeros", "config": {}}, "bias_regularizer": null, "activity_regularizer": null, "use_bias": true, "kernel_regularizer": null, "kernel_constraint": null, "kernel_size": [1, 1], "data_format": "channels_last", "filters": 2080, "strides": [1, 1], "name": "block8_9_conv", "trainable": true, "padding": "same", "activation": "linear", "bias_constraint": null, "kernel_initializer": {"class_name": "VarianceScaling", "config": {"mode": "fan_avg", "distribution": "uniform", "seed": null, "scale": 1.0}}, "dilation_rate": [1, 1]}}, {"class_name": "Lambda", "inbound_nodes": [[["block8_8_ac", 0, 0, {}], ["block8_9_conv", 0, 0, {}]]], "name": "block8_9", "config": {"function": ["4wIAAAAAAAAAAgAAAAMAAABTAAAAcxQAAAB8AABkAQAZfAAAZAIAGXwBABQXUykDTukAAAAA6QEA\nAACpACkC2gZpbnB1dHPaBXNjYWxlcgMAAAByAwAAAPpQL3Vzci9sb2NhbC9saWIvcHl0aG9uMy41\nL2Rpc3QtcGFja2FnZXMva2VyYXNfYXBwbGljYXRpb25zL2luY2VwdGlvbl9yZXNuZXRfdjIucHna\nCDxsYW1iZGE+qAAAAPMAAAAA\n", null, null], "name": "block8_9", "output_shape_type": "raw", "trainable": true, "function_type": "lambda", "output_shape": [8, 8, 2080], "arguments": {"scale": 0.2}}}, {"class_name": "Activation", "inbound_nodes": [[["block8_9", 0, 0, {}]]], "name": "block8_9_ac", "config": {"activation": "relu", "name": "block8_9_ac", "trainable": true}}, {"class_name": "Conv2D", "inbound_nodes": [[["block8_9_ac", 0, 0, {}]]], "name": "conv2d_201", "config": {"bias_initializer": {"class_name": "Zeros", "config": {}}, "bias_regularizer": null, "activity_regularizer": null, "use_bias": false, "kernel_regularizer": null, "kernel_constraint": null, "kernel_size": [1, 1], "data_format": "channels_last", "filters": 192, "strides": [1, 1], "name": "conv2d_201", "trainable": true, "padding": "same", "activation": "linear", "bias_constraint": null, "kernel_initializer": {"class_name": "VarianceScaling", "config": {"mode": "fan_avg", "distribution": "uniform", "seed": null, "scale": 1.0}}, "dilation_rate": [1, 1]}}, {"class_name": "BatchNormalization", "inbound_nodes": [[["conv2d_201", 0, 0, {}]]], "name": "batch_normalization_201", "config": {"gamma_initializer": {"class_name": "Ones", "config": {}}, "epsilon": 0.001, "scale": false, "beta_constraint": null, "name": "batch_normalization_201", "moving_mean_initializer": {"class_name": "Zeros", "config": {}}, "beta_regularizer": null, "center": true, "beta_initializer": {"class_name": "Zeros", "config": {}}, "moving_variance_initializer": {"class_name": "Ones", "config": {}}, "momentum": 0.99, "trainable": true, "gamma_constraint": null, "axis": 3, "gamma_regularizer": null}}, {"class_name": "Activation", "inbound_nodes": [[["batch_normalization_201", 0, 0, {}]]], "name": "activation_201", "config": {"activation": "relu", "name": "activation_201", "trainable": true}}, {"class_name": "Conv2D", "inbound_nodes": [[["activation_201", 0, 0, {}]]], "name": "conv2d_202", "config": {"bias_initializer": {"class_name": "Zeros", "config": {}}, "bias_regularizer": null, "activity_regularizer": null, "use_bias": false, "kernel_regularizer": null, "kernel_constraint": null, "kernel_size": [1, 3], "data_format": "channels_last", "filters": 224, "strides": [1, 1], "name": "conv2d_202", "trainable": true, "padding": "same", "activation": "linear", "bias_constraint": null, "kernel_initializer": {"class_name": "VarianceScaling", "config": {"mode": "fan_avg", "distribution": "uniform", "seed": null, "scale": 1.0}}, "dilation_rate": [1, 1]}}, {"class_name": "BatchNormalization", "inbound_nodes": [[["conv2d_202", 0, 0, {}]]], "name": "batch_normalization_202", "config": {"gamma_initializer": {"class_name": "Ones", "config": {}}, "epsilon": 0.001, "scale": false, "beta_constraint": null, "name": "batch_normalization_202", "moving_mean_initializer": {"class_name": "Zeros", "config": {}}, "beta_regularizer": null, "center": true, "beta_initializer": {"class_name": "Zeros", "config": {}}, "moving_variance_initializer": {"class_name": "Ones", "config": {}}, "momentum": 0.99, "trainable": true, "gamma_constraint": null, "axis": 3, "gamma_regularizer": null}}, {"class_name": "Activation", "inbound_nodes": [[["batch_normalization_202", 0, 0, {}]]], "name": "activation_202", "config": {"activation": "relu", "name": "activation_202", "trainable": true}}, {"class_name": "Conv2D", "inbound_nodes": [[["block8_9_ac", 0, 0, {}]]], "name": "conv2d_200", "config": {"bias_initializer": {"class_name": "Zeros", "config": {}}, "bias_regularizer": null, "activity_regularizer": null, "use_bias": false, "kernel_regularizer": null, "kernel_constraint": null, "kernel_size": [1, 1], "data_format": "channels_last", "filters": 192, "strides": [1, 1], "name": "conv2d_200", "trainable": true, "padding": "same", "activation": "linear", "bias_constraint": null, "kernel_initializer": {"class_name": "VarianceScaling", "config": {"mode": "fan_avg", "distribution": "uniform", "seed": null, "scale": 1.0}}, "dilation_rate": [1, 1]}}, {"class_name": "Conv2D", "inbound_nodes": [[["activation_202", 0, 0, {}]]], "name": "conv2d_203", "config": {"bias_initializer": {"class_name": "Zeros", "config": {}}, "bias_regularizer": null, "activity_regularizer": null, "use_bias": false, "kernel_regularizer": null, "kernel_constraint": null, "kernel_size": [3, 1], "data_format": "channels_last", "filters": 256, "strides": [1, 1], "name": "conv2d_203", "trainable": true, "padding": "same", "activation": "linear", "bias_constraint": null, "kernel_initializer": {"class_name": "VarianceScaling", "config": {"mode": "fan_avg", "distribution": "uniform", "seed": null, "scale": 1.0}}, "dilation_rate": [1, 1]}}, {"class_name": "BatchNormalization", "inbound_nodes": [[["conv2d_200", 0, 0, {}]]], "name": "batch_normalization_200", "config": {"gamma_initializer": {"class_name": "Ones", "config": {}}, "epsilon": 0.001, "scale": false, "beta_constraint": null, "name": "batch_normalization_200", "moving_mean_initializer": {"class_name": "Zeros", "config": {}}, "beta_regularizer": null, "center": true, "beta_initializer": {"class_name": "Zeros", "config": {}}, "moving_variance_initializer": {"class_name": "Ones", "config": {}}, "momentum": 0.99, "trainable": true, "gamma_constraint": null, "axis": 3, "gamma_regularizer": null}}, {"class_name": "BatchNormalization", "inbound_nodes": [[["conv2d_203", 0, 0, {}]]], "name": "batch_normalization_203", "config": {"gamma_initializer": {"class_name": "Ones", "config": {}}, "epsilon": 0.001, "scale": false, "beta_constraint": null, "name": "batch_normalization_203", "moving_mean_initializer": {"class_name": "Zeros", "config": {}}, "beta_regularizer": null, "center": true, "beta_initializer": {"class_name": "Zeros", "config": {}}, "moving_variance_initializer": {"class_name": "Ones", "config": {}}, "momentum": 0.99, "trainable": true, "gamma_constraint": null, "axis": 3, "gamma_regularizer": null}}, {"class_name": "Activation", "inbound_nodes": [[["batch_normalization_200", 0, 0, {}]]], "name": "activation_200", "config": {"activation": "relu", "name": "activation_200", "trainable": true}}, {"class_name": "Activation", "inbound_nodes": [[["batch_normalization_203", 0, 0, {}]]], "name": "activation_203", "config": {"activation": "relu", "name": "activation_203", "trainable": true}}, {"class_name": "Concatenate", "inbound_nodes": [[["activation_200", 0, 0, {}], ["activation_203", 0, 0, {}]]], "name": "block8_10_mixed", "config": {"axis": 3, "name": "block8_10_mixed", "trainable": true}}, {"class_name": "Conv2D", "inbound_nodes": [[["block8_10_mixed", 0, 0, {}]]], "name": "block8_10_conv", "config": {"bias_initializer": {"class_name": "Zeros", "config": {}}, "bias_regularizer": null, "activity_regularizer": null, "use_bias": true, "kernel_regularizer": null, "kernel_constraint": null, "kernel_size": [1, 1], "data_format": "channels_last", "filters": 2080, "strides": [1, 1], "name": "block8_10_conv", "trainable": true, "padding": "same", "activation": "linear", "bias_constraint": null, "kernel_initializer": {"class_name": "VarianceScaling", "config": {"mode": "fan_avg", "distribution": "uniform", "seed": null, "scale": 1.0}}, "dilation_rate": [1, 1]}}, {"class_name": "Lambda", "inbound_nodes": [[["block8_9_ac", 0, 0, {}], ["block8_10_conv", 0, 0, {}]]], "name": "block8_10", "config": {"function": ["4wIAAAAAAAAAAgAAAAMAAABTAAAAcxQAAAB8AABkAQAZfAAAZAIAGXwBABQXUykDTukAAAAA6QEA\nAACpACkC2gZpbnB1dHPaBXNjYWxlcgMAAAByAwAAAPpQL3Vzci9sb2NhbC9saWIvcHl0aG9uMy41\nL2Rpc3QtcGFja2FnZXMva2VyYXNfYXBwbGljYXRpb25zL2luY2VwdGlvbl9yZXNuZXRfdjIucHna\nCDxsYW1iZGE+qAAAAPMAAAAA\n", null, null], "name": "block8_10", "output_shape_type": "raw", "trainable": true, "function_type": "lambda", "output_shape": [8, 8, 2080], "arguments": {"scale": 1.0}}}, {"class_name": "Conv2D", "inbound_nodes": [[["block8_10", 0, 0, {}]]], "name": "conv_7b", "config": {"bias_initializer": {"class_name": "Zeros", "config": {}}, "bias_regularizer": null, "activity_regularizer": null, "use_bias": false, "kernel_regularizer": null, "kernel_constraint": null, "kernel_size": [1, 1], "data_format": "channels_last", "filters": 1536, "strides": [1, 1], "name": "conv_7b", "trainable": true, "padding": "same", "activation": "linear", "bias_constraint": null, "kernel_initializer": {"class_name": "VarianceScaling", "config": {"mode": "fan_avg", "distribution": "uniform", "seed": null, "scale": 1.0}}, "dilation_rate": [1, 1]}}, {"class_name": "BatchNormalization", "inbound_nodes": [[["conv_7b", 0, 0, {}]]], "name": "conv_7b_bn", "config": {"gamma_initializer": {"class_name": "Ones", "config": {}}, "epsilon": 0.001, "scale": false, "beta_constraint": null, "name": "conv_7b_bn", "moving_mean_initializer": {"class_name": "Zeros", "config": {}}, "beta_regularizer": null, "center": true, "beta_initializer": {"class_name": "Zeros", "config": {}}, "moving_variance_initializer": {"class_name": "Ones", "config": {}}, "momentum": 0.99, "trainable": true, "gamma_constraint": null, "axis": 3, "gamma_regularizer": null}}, {"class_name": "Activation", "inbound_nodes": [[["conv_7b_bn", 0, 0, {}]]], "name": "conv_7b_ac", "config": {"activation": "relu", "name": "conv_7b_ac", "trainable": true}}], "name": "inception_resnet_v2"}}, {"class_name": "Flatten", "config": {"name": "flatten_1", "data_format": "channels_last", "trainable": true}}, {"class_name": "Dropout", "config": {"noise_shape": null, "rate": 0.2, "seed": null, "name": "dropout_1", "trainable": true}}, {"class_name": "Dense", "config": {"bias_initializer": {"class_name": "Zeros", "config": {}}, "bias_regularizer": null, "units": 512, "use_bias": true, "kernel_regularizer": null, "kernel_constraint": null, "name": "dense_1", "trainable": true, "activation": "relu", "bias_constraint": null, "kernel_initializer": {"class_name": "VarianceScaling", "config": {"mode": "fan_avg", "distribution": "uniform", "seed": null, "scale": 1.0}}, "activity_regularizer": null}}, {"class_name": "Dropout", "config": {"noise_shape": null, "rate": 0.2, "seed": null, "name": "dropout_2", "trainable": true}}, {"class_name": "Dense", "config": {"bias_initializer": {"class_name": "Zeros", "config": {}}, "bias_regularizer": null, "units": 256, "use_bias": true, "kernel_regularizer": null, "kernel_constraint": null, "name": "dense_2", "trainable": true, "activation": "relu", "bias_constraint": null, "kernel_initializer": {"class_name": "VarianceScaling", "config": {"mode": "fan_avg", "distribution": "uniform", "seed": null, "scale": 1.0}}, "activity_regularizer": null}}, {"class_name": "Dropout", "config": {"noise_shape": null, "rate": 0.2, "seed": null, "name": "dropout_3", "trainable": true}}, {"class_name": "Dense", "config": {"bias_initializer": {"class_name": "Zeros", "config": {}}, "bias_regularizer": null, "units": 25, "use_bias": true, "kernel_regularizer": null, "kernel_constraint": null, "name": "dense_3", "trainable": true, "activation": "sigmoid", "bias_constraint": null, "kernel_initializer": {"class_name": "VarianceScaling", "config": {"mode": "fan_avg", "distribution": "uniform", "seed": null, "scale": 1.0}}, "activity_regularizer": null}}], "name": "sequential_1"}}